QM9_net.pth (torch_old, 392700 bytes, 32 tensors)

conv3d_11.weight f4 [8, 1, 3, 3, 3]
0.19882238 -0.037754823 -0.0025583296 0.029937407 0.066476345 0.13413993 -0.0035586478 -0.13714705
-0.0074703596 0.058154244 -0.10527106 0.13728681 0.0048130117 -0.16312467 -0.05712225 0.14571454
0.123293035 0.017036306 0.06843538 -0.13028501 0.011578869 0.04492796 0.11888215 0.17388372
-0.18054219 -0.06302239 0.16893485 0.0074478504 -0.02241458 -0.0933315 -0.14561719 0.05686086
0.10535485 -0.12831885 0.016339624 -0.0681884 0.0954915 0.1259844 0.18318653 -0.14374991
0.1881708 0.079351574 -0.049700994 0.12714632 0.016053759 -0.036183532 -0.14479518 -0.13464758
0.17156808 0.012363966 0.03094456 0.00068112265 0.15791783 0.1947515 0.027084066 -0.12421564
0.104353584 -0.052073993 -0.0905831 0.06714884 0.19209088 0.013734118 0.0102184815 -0.13556458
-0.02490104 0.02727162 0.08905906 0.07139029 -0.17741904 -0.14287615 -0.10651073 -0.12938702
0.036850583 0.16105954 -0.16977188 0.0978334 0.0435931 0.16912015 -0.17160563 -0.12424954
-0.14376967 0.07740164 0.046243705 -0.17723593 0.002892777 -0.01495748 -0.084362306 0.007072844
0.023211168 -0.17540342 0.17887071 0.12465968 0.050367832 -0.11871143 -0.06253423 -0.033307154
-0.05202052 -0.14384261 0.061976247 0.12843738 0.17119803 -0.117364876 -0.029925242 -0.14783375
-0.027462961 0.1409857 -0.109970815 0.03885782 -0.07844572 -0.122351184 0.007380196 -0.11621104
-0.13281474 -0.0463978 0.0006835912 0.071035035 0.065834254 -0.08319449 0.098263 0.06304111
0.15716791 -0.15584818 -0.11336382 0.07490589 0.10306742 0.051228564 0.027656738 -0.06356505
0.062246986 -0.13154864 -0.062254176 -0.1235209 0.13314348 0.085548386 0.13707346 -0.02425772
-0.09694104 -0.030344272 -0.17456868 -0.03731956 -0.0046626492 0.09806547 0.035228323 0.12372366
0.14692803 -0.12078347 -0.10955012 0.17161313 -0.17357758 0.08727986 -0.03841536 0.11457921
0.18856968 0.16930354 0.1804689 -0.02192948 -0.08267799 0.16453168 -0.15678895 0.11953008
0.16714825 -0.026406894 -0.16823225 0.058714394 0.1657921 0.037167888 -0.066915266 0.01834927
0.122807644 -0.13005245 0.06149445 0.02011392 -0.10458958 0.17314777 0.1821833 0.18296124
-0.074803784 0.08077143 0.162552 -0.05205818 0.059842054 -0.040934008 -0.15075995 -0.14750282
-0.08900993 -0.02100369 0.19036983 -0.09370013 -0.02074398 0.0892588 -0.12632994 -0.13395475
-0.059398375 0.14964071 0.10777514 -0.0057524676 -0.09290018 -0.06719505 -0.03018972 0.051681645
-0.063938215 -0.08929707 -0.025527824 -0.015554408 0.0944945 -0.015533111 -0.110475145 0.035453502
0.024806527 -4.2460008e-05 0.16087379 0.106096014 0.036707904 -0.056587353 -0.14126031 -0.040308133
00000000: 1898 4b3e cda4 1abd a6a9 27bb 4b3f f53c
00000010: c024 883d fa5b 093e 3438 69bb 4770 0cbe
00000020: ebc9 f4bb 2533 6e3d 5a98 d7bd ea94 0c3e
00000030: 78b6 9d3b 270a 27be 05f9 69bd 3136 153e
00000040: 0f81 fc3d b98f 8b3c d927 8c3d 6f69 05be
00000050: 4cb5 3d3c 6106 383d 7c78 f33d 930e 323e
00000060: 0de0 38be e211 81bd 42fd 2c3e 190d f43b
00000070: c89e b7bc 9624 bfbd ac1c 15be efe6 683d
00000080: 49c4 d73d 0466 03be adda 853c 5ca6 8bbd
00000090: 0c91 c33d 0e02 013e 4095 3b3e 2d33 13be
000000a0: d9af 403e 1483 a23d 4593 4bbd a532 023e
000000b0: 2c83 833c 2f35 14bd 3045 14be 0ee1 09be
000000c0: 8baf 2f3e 3b92 4a3c 727f fd3c 5e8d 323a
000000d0: 36b5 213e f06c 473e 67df dd3c c564 febd
000000e0: 55b7 d53d 8a4b 55bd a283 b9bd 5585 893d
000000f0: 79b3 443e 1105 613c 6b6b 273c 71d1 0abe
00000100: 44fd cbbc bc68 df3c 9964 b63d 1335 923d
00000110: 56ad 35be 204e 12be 4c22 dabd 087e 04be
00000120: a3f0 163d cbec 243e aed8 2dbe e15c c83d
00000130: ae8e 323d d52d 2d3e 63b9 2fbe 8b76 febd
00000140: 5b38 13be c084 9e3d 0a6a 3d3d 567d 35be
00000150: bf94 3d3b 3810 75bc 25c6 acbd 51c3 e73b
00000160: 5925 be3c f49c 33be e229 373e 934d ff3d
00000170: 804e 4e3d fa1e f3bd f211 80bd 156d 08bd
00000180: 7813 55bd 7a4b 13be ceda 7d3d 1785 033e
00000190: 894e 2f3e ff5c f0bd c825 f5bc bb61 17be
000001a0: 01fa e0bc 8e5e 103e 6138 e1bd 6129 1f3d
000001b0: 26a8 a0bd 4293 fabd 92d5 f13b 0e00 eebd
000001c0: 9600 08be 9f0b 3ebd 0733 333a d17a 913d
000001d0: 1cd4 863d df61 aabd 1d3e c93d b31b 813d
000001e0: a0f0 203e aa96 1fbe 4a2b e8bd 4268 993d
000001f0: 0315 d33d 0bd5 513d 6290 e23c 652e 82bd
00000200: b2f6 7e3d b0b4 06be 3cfe 7ebd 87f8 fcbd
00000210: c456 083e fe33 af3d fc5c 0c3e 20b8 c6bc
00000220: 0689 c6bd 8d94 f8bc 22c2 32be 65dc 18bd
00000230: 23c9 98bb 8dd6 c83d 934b 103d d562 fd3d
00000240: 4d74 163e 535d f7bd d05b e0bd 5abb 2f3e
00000250: 52be 31be c9bf b23d 6d59 1dbd 81a8 ea3d
00000260: 6918 413e e85d 2d3e d7cc 383e 74a5 b3bc
00000270: 1453 a9bd fe7a 283e 488d 20be 30cc f43d
00000280: e928 2b3e 4553 d8bc 1345 2cbe 817e 703d
00000290: 67c5 293e 5b3d 183d df0a 89bd 3551 963c
000002a0: 9382 fb3d 782c 05be 9be1 7b3d f3c5 a43c
000002b0: 1033 d6bd a64d 313e 428e 3a3e 315a 3b3e
000002c0: ba32 99bd 7e6b a53d 0874 263e f53a 55bd
000002d0: f11c 753d 6baa 27bd d160 1abe fb0a 17be
000002e0: d74a b6bd ee0f acbc 4ff0 423e dbe5 bfbd
000002f0: 47ef a9bc 51cd b63d a35c 01be 6f2b 09be
00000300: b64b 73bd 6a3b 193e 36b9 dc3d 327f bcbb
00000310: 7342 bebd 8f9d 89bd 6f50 f7bc 22b0 533d
00000320: 0af2 82bd 62e1 b6bd ba1f d1bc ead7 7ebc
00000330: 5586 c13d 977e 7ebc cb40 e2bd b137 113d
00000340: 0f37 cb3c 1617 32b8 19bc 243e de48 d93d
00000350: 075b 163d 24c8 67bd 8ba6 10be 241a 25bd

conv3d_11.bias f4 [8]
0.21064562 0.23629206 -0.0075374814 0.0037465766 0.116065554 0.17936035 0.10749182 -0.076051354
00000000: 7cb3 573e 8cf6 713e fafc f6bb 2089 753b
00000010: c7b3 ed3d 3daa 373e ac24 dc3d d0c0 9bbd

conv3d_12.weight f4 [8, 8, 3, 3, 3]
0.058910653 -0.061734848 -0.013573864 -0.015566653 -0.02504108 -0.04597129 0.042584296 0.017341327
-0.030447429 0.06170588 0.018935528 -0.05047573 -0.027220763 -0.061366133 -0.0058900993 0.052947868
0.033841547 0.05353851 0.04123246 -0.029579358 0.040414218 -0.043631952 -0.053571988 0.06407553
-0.011910587 0.052591894 0.052475944 -0.0012506522 0.062009655 -0.018431753 -0.040966596 -0.051272016
-0.019698637 -0.0043077 0.0049314355 0.015797714 -0.04291137 -0.02803517 0.059554018 -0.0019837972
-0.06127335 0.017753987 0.006072896 0.058680534 -0.0014594047 0.06378888 0.040189914 -0.010032
0.0630315 -0.023922194 0.06373316 0.003339724 0.033831898 0.0059829177 0.020859284 0.05536856
-0.0658544 0.06726548 -0.02651217 0.04060185 0.038900614 -0.0353005 0.033481713 -0.026959991
0.03901163 -0.04256907 -0.010689361 0.044154618 0.043153908 0.023619315 0.030930812 0.019182343
-0.04854142 0.048350915 -0.020941462 0.0620266 0.062256128 -0.0058997087 0.039682668 -0.01017558
-0.0006216538 -0.01204159 0.009558467 0.045173477 0.05691555 0.021644956 -0.05570379 -0.03477963
-0.0036976747 -0.0035242636 0.018624784 -0.06475829 0.011253399 -0.031101212 -0.05308403 0.036119133
0.011894166 0.049277145 -0.02367356 -0.005402154 -0.06484136 0.03172891 0.021644685 -0.058814675
-0.031708263 -0.00820884 0.06759379 0.0009657936 0.034822527 0.060754023 -0.03329471 0.049334675
-0.00028930264 0.004926441 -0.05383 0.0647155 0.031959906 0.05373579 0.03484524 -0.018564215
-0.02001994 0.020442497 -0.05290512 -0.054895464 -0.009768164 -0.032904703 -0.028094131 0.033673476
0.026136642 -0.03885013 -0.03165556 0.024623757 -0.067717746 -0.057908572 -0.02332868 0.061392445
0.044998728 -0.063184775 -0.062383544 -0.036483966 0.020957764 0.017672317 -0.054457374 -0.03251799
0.011984543 0.028882759 0.053759824 0.048080787 -0.012849942 -0.040119775 -0.0074199103 0.03230087
-0.036342643 -0.00080683496 -0.008039969 -0.06930427 -0.012853036 -0.058163784 -0.020243293 -0.0426845
-0.051408343 -0.044271693 0.008509495 -0.02321655 0.06473541 0.038107023 -0.02010113 -0.009399874
-0.025168661 0.02843881 0.033985958 -0.060012043 -0.05011555 -0.051278412 0.06568379 0.036472816
-0.018224945 -0.04025787 0.064778425 -0.04334615 -0.046471 -0.05154466 -0.016967515 -0.040745262
0.038198233 0.038908955 -0.03653993 0.06676906 -6.733175e-05 -0.050546344 0.058342375 0.0085252635
-0.032380573 0.028545227 -0.06220218 -0.043966822 0.041730423 -0.057236966 -0.011179619 0.0453419
0.04569798 0.030226393 -0.038550008 0.061691083 -0.047885396 -0.040108882 -0.031867187 -0.06575669
-0.028497558 -0.006677299 -0.036851574 0.0596428 -0.060257625 0.02852068 -0.020549433 0.0455444
0.032340378 0.08060372 0.071000084 -0.046109065 -0.013079437 -0.007281708 0.03252106 0.056585092
0.046625495 0.005321876 -0.004518187 0.003206891 0.014692392 0.050044965 -0.009507695 0.08114265
0.07924123 0.03953305 0.039931286 0.012839735 -0.021765608 0.04313097 0.07978297 0.08310787
0.05475677 0.051144358 0.067046285 -0.027783416 0.07166007 0.023694279 0.05993169 0.027276853
0.0680297 0.042166654 0.018559396 -0.041406464 -0.035275407 0.08090419 -0.026697267 0.029857356
00000000: 4c4c 713d aedd 7cbd e964 5ebc 460b 7fbc
00000010: f322 cdbc 644c 3cbd df6c 2e3d 660f 8e3c
00000020: e36c f9bc 4ebf 7c3d ae1e 9b3c a4bf 4ebd
00000030: 14fe debc 0e5b 7bbd bc01 c1bb dddf 583d
00000040: 6f9d 0a3d 324b 5b3d 5ee3 283d 6950 f2bc
00000050: 6189 253d 6bb7 32bd 4d6e 5bbd 083a 833d
00000060: 9f24 43bc 996a 573d 04f1 563d edec a3ba
00000070: d6fd 7d3d 30fe 96bc 97cc 27bd 9b02 52bd
00000080: 095f a1bc 9b27 8dbb e197 a13b 356a 813c
00000090: d5c3 2fbd 03aa e5bc eaee 733d 9802 02bb
000000a0: c4f9 7abd cf70 913c 25ff c63b 005b 703d
000000b0: 7f49 bfba bfa3 823d 2e9e 243d 425d 24bc
000000c0: a916 813d 7af8 c3bc 8886 823d 45df 5a3b
000000d0: 5193 0a3d 5a0c c43b 17e1 aa3c 25ca 623d
000000e0: acde 86bd 7cc2 893d 0d30 d9bc 204e 263d
000000f0: 4056 1f3d 4297 10bd 1f24 093d 33db dcbc
00000100: a9ca 1f3d e85c 2ebd 6e22 2fbc 79db 343d
00000110: 27c2 303d 4b7d c13c 9d62 fd3c 4a24 9d3c
00000120: 5ed3 46bd 9c0b 463d 6e8d abbc 9b0f 7e3d
00000130: 4800 7f3d 5852 c1bb 4b8a 223d 7ab7 26bc
00000140: 7bf6 22ba 174a 45bc 1e9b 1c3c d307 393d
00000150: 4820 693d c350 b13c a829 64bd 1675 0ebd
00000160: b054 72bb 55f7 66bb 0193 983c ff9f 84bd
00000170: 2d60 383c f8c7 febc a46e 59bd a8f1 133d
00000180: bfdf 423c d5d6 493d 0eef c1bc 8d04 b1bb
00000190: 8ccb 84bd 2cf6 013d 3250 b13c a8e7 70bd
000001a0: 86e0 01bd 5f7e 06bc 9d6e 8a3d 502d 7d3a
000001b0: 11a2 0e3d 36d9 783d 0960 08bd 2813 4a3d
000001c0: 8bad 97b9 fb6d a13b d97c 5cbd 8f89 843d
000001d0: 64e8 023d 0f1a 5c3d e2b9 0e3d fb13 98bc
000001e0: db00 a4bc 0677 a73c 0ab3 58bd 11da 60bd
000001f0: a60a 20bc 15c7 06bd aa25 e6bc 33ed 093d
00000200: 831c d63c 5021 1fbd 43a9 01bd c3b7 c93c
00000210: 9aaf 8abd 8a31 6dbd ca1b bfbc a576 7b3d
00000220: 9650 383d 0567 81bd e385 7fbd 3670 15bd
00000230: 9eaf ab3c 89c5 903c b20e 5fbd 9531 05bd
00000240: d15a 443c 899b ec3c 4333 5c3d 5cf0 443d
00000250: 9088 52bc a254 24bd b822 f3bb eb4d 043d
00000260: 06dc 14bd c781 53ba 13ba 03bc 66ef 8dbd
00000270: 8a95 52bc 263d 6ebd 43d5 a5bc f1d5 2ebd
00000280: 8e91 52bd 3c56 35bd 696b 0b3c a230 bebc
00000290: 0094 843d 1c16 1c3d 20ab a4bc ee01 1abc
000002a0: 822e cebc 82f8 e83c dc34 0b3d 30cf 75bd
000002b0: f745 4dbd 5009 52bd 3985 863d 8564 153d
000002c0: 7b4c 95bc 70e5 24bd 8daa 843d bc8b 31bd
000002d0: 6058 3ebd 7e20 53bd 75ff 8abc 81e4 26bd
000002e0: c075 1c3d ff5e 1f3d e5aa 15bd 38be 883d
000002f0: 7534 8db8 af09 4fbd 6af8 6e3d 8cad 0b3c
00000300: 7ea1 04bd aed7 e93c b7c7 7ebd 8e16 34bd
00000310: 85ed 2a3d 4f71 6abd b82a 37bc 6eb8 393d
00000320: ce2d 3b3d 579d f73c 9de6 1dbd caaf 7c3d
00000330: 7a23 44bd 3649 24bd 2b87 02bd 72ab 86bd
00000340: b673 e9bc 3ecd dabb adf1 16bd 024c 743d
00000350: b3d0 76bd 33a4 e93c 4957 a8bc c48c 3a3d
00000360: 5877 043d 9013 a53d 7e68 913d dcdc 3cbd
00000370: 234b 56bc 659b eebb ce34 053d c5c5 673d
00000380: 60fa 3e3d 2263 ae3b 4d0d 94bb b42a 523b
00000390: 5cb8 703c f3fb 4c3d 2ac6 1bbc 1e2e a63d
000003a0: 3a49 a23d 68ed 213d fd8e 233d c05d 523c
000003b0: ca4d b2bc 1aaa 303d 4165 a33d 7534 aa3d
000003c0: a348 603d bf7c 513d 904f 893d 0c9a e3bc
000003d0: 84c2 923d 811a c23c ef7a 753d b573 df3c
000003e0: 2853 8b3d f1b6 2c3d e009 983c d399 29bd
000003f0: f27c 10bd 19b1 a53d 3ab4 dabc 6a97 f43c

conv3d_12.bias f4 [8]
-0.047091976 0.06726069 -0.008374934 -0.0348191 0.26109138 -0.011530725 -0.018016327 -0.007632701
00000000: 84e3 40bd f9bf 893d 0537 09bc 799e 0ebd
00000010: c5ad 853e 5eeb 3cbc fa96 93bc bd1b fabb

conv3d_21.weight f4 [16, 8, 3, 3, 3]
0.048104193 -0.017060703 0.06476314 -0.044890642 0.046223596 0.062130354 -0.042733032 0.059017207
-0.019197855 -0.05806906 0.0047251647 -0.015091215 0.0075612725 -0.035787348 0.049384665 0.0469382
-0.012815173 -0.05901773 -0.02303942 0.05770048 -0.059235457 0.00017573188 -0.060041945 -0.061101507
-0.027065242 -0.028370975 0.015361525 -0.05641204 -0.020742249 0.058327816 0.014653367 0.0697024
-0.028887376 -0.0339038 -0.030221164 -0.027418602 0.07092426 -0.0010354096 -0.015796466 0.031968515
0.047098096 0.029724568 -0.03766267 -0.016197056 0.0025548444 -0.021689413 0.03006685 0.052947707
-0.015732422 -0.008994745 0.032622617 0.05852145 0.013098348 -0.04918889 -0.019499855 0.0363982
-0.0070677334 0.05638719 -0.006448377 -0.0032535687 0.060576893 -0.024835289 0.007852108 -0.04581676
0.016272904 -0.037323207 -0.037875462 -0.0062453165 -0.059905734 -0.06507233 -0.024299461 -0.03139084
-0.060832605 0.05376103 -0.058170177 0.061809085 -0.020352744 -0.016511898 -0.060480006 -0.053777553
-0.021219505 -0.012715794 -0.05360975 0.055992946 0.046314277 -0.04379823 -0.015770342 -0.025949335
-0.01474407 -0.020495122 0.0040516467 0.00076720904 0.04562818 0.016311482 -0.024111472 0.03512929
-0.008204796 0.021597909 0.022860974 -0.044352017 0.04472818 -0.056598574 -0.047382027 -0.02055562
-0.017874036 0.017657062 0.028275784 0.0486032 0.069470786 -0.054919723 0.04688562 -0.011293727
-0.037854843 -0.013788683 0.0610072 0.020997334 0.035651386 0.04354435 0.0016817142 0.06264811
-0.03765468 0.06071979 -0.05119695 -0.03828197 -0.025692884 0.068460956 0.051101606 0.04710257
0.06343544 0.019220008 -0.011205086 -0.02477081 -0.037460487 -0.051454183 0.031988494 0.045267746
0.063351676 -0.05070168 -0.06397779 -0.049240254 -0.008650594 -0.06195165 -0.028359156 -0.03328729
0.022970181 -0.01221375 0.032848958 -0.006926763 0.002129612 0.039156824 0.034886934 0.013704859
0.02569809 0.02088145 -0.05664383 0.05846669 0.007302887 -0.026693892 0.010310069 -0.062493287
0.03735729 -0.027837608 -0.0458302 0.05874962 0.04579805 -0.041036144 0.0526336 0.053016786
-0.06355105 -0.034649905 -0.015441889 0.02645719 0.06591782 -0.06706164 0.0644432 -0.026292011
0.028733093 0.023766113 0.06648726 0.048438955 0.057868194 0.018697888 0.0662372 -0.039650448
0.058054272 -0.008971087 0.011900138 0.0169898 0.018132772 0.051816057 0.008299922 -0.06301335
-0.015238525 -0.021588342 -0.03634011 -0.06501805 -0.006014189 0.0398389 0.036075037 -0.030089257
0.025780618 -0.011375131 -0.005496269 -0.03556156 -0.045605455 -0.044084206 -0.061646722 -0.03289834
-0.061791185 -0.045204688 0.013417843 -0.03541129 0.020534968 -0.03209319 -0.06534439 0.014148966
-0.043685846 -0.04261601 0.010437907 0.05479641 0.062654525 0.033471372 -0.055040374 -0.059253827
-0.030118946 0.063878216 0.016925666 0.019250274 -0.05754871 0.03131995 0.006032317 0.025797205
0.0467621 -0.039632548 -0.011328693 0.01850846 0.012792293 -0.04495693 -0.04193313 0.017166596
0.05124402 0.06752113 -0.0342537 0.04560581 -0.059612356 0.0026773475 0.014246949 -0.011610474
-0.020785144 -0.054392766 0.015592141 -0.010608743 0.03881032 0.03743834 -0.06368431 0.041931126
00000000: e708 453d e3c2 8bbc 8aa2 843d 40df 37bd
00000010: f454 3d3d 667c 7e3d d508 2fbd 07bc 713d
00000020: d244 9dbc d3d9 6dbd 8ed5 9a3b 2541 77bc
00000030: 8dc4 f73b c195 12bd 9347 4a3d 4542 403d
00000040: bbf6 51bc 93bc 71bd 2abd bcbc 5757 6c3d
00000050: e1a0 72bd ab44 3839 8bee 75bd 9345 7abd
00000060: edb7 ddbc 3f6a e8bc e8ae 7b3c 5010 67bd
00000070: a6eb a9bc 26e9 6e3d ad14 703c 22c0 8e3d
00000080: 38a5 ecbc b6de 0abd 6092 f7bc fa9c e0bc
00000090: bd40 913d 95b6 87ba 9767 81bc 6bf1 023d
000000a0: efe9 403d f080 f33c 2c44 1abd b0af 84bc
000000b0: 2d6f 273b ffad b1bc c14e f63c b2df 583d
000000c0: 48e1 80bc b25e 13bc 4b9f 053d 30b4 6f3d
000000d0: 749a 563c 4a7a 49bd 29be 9fbc 4716 153d
000000e0: 7298 e7bb 41f6 663d e84c d3bb d339 55bb
000000f0: 7a1f 783d 6073 cbbc 21a6 003c 5baa 3bbd
00000100: c14e 853c 38e0 18bd 4d23 1bbd 83a5 ccbb
00000110: b75f 75bd a444 85bd aa0f c7bc ae93 00bd
00000120: 9c2b 79bd 8734 5c3d da43 6ebd 862b 7d3d
00000130: ccba a6bc f643 87bc e2b9 77bd da45 5cbd
00000140: 87d4 adbc e855 50bc e695 5bbd dc58 653d
00000150: 0ab4 3d3d c665 33bd ce30 81bc b393 d4bc
00000160: 1d91 71bc 63e5 a7bc adc3 843b 871e 493a
00000170: 9de4 3a3d a89f 853c 6c85 c5bc bbe3 0f3d
00000180: 696d 06bc 19ee b03c f046 bb3c 76aa 35bd
00000190: e534 373d e8d3 67bd a813 42bd 4264 a8bc
000001a0: 926c 92bc 8ba5 903c 9ea2 e73c 2614 473d
000001b0: b346 8e3d 81f3 60bd 230b 403d 5309 39bc
000001c0: ae0d 1bbd eee9 61bc b0e2 793d 9a02 ac3c
000001d0: 3007 123d 8f5b 323d f76c dc3a a74d 803d
000001e0: cb3b 1abd 51b5 783d e5b3 51bd 8ecd 1cbd
000001f0: e279 d2bc 4235 8c3d eb4f 513d a0ee 403d
00000200: 71ea 813d 4773 9d3c 8995 37bc 27ec cabc
00000210: 2b70 19bd 9fc1 52bd 5e06 033d ac6a 393d
00000220: 86be 813d 91ac 4fbd ca06 83bd 26b0 49bd
00000230: 39bb 0dbc 03c1 7dbd 7651 e8bc 4158 08bd
00000240: f62b bc3c 2e1c 48bc a18c 063d e6f9 e2bb
00000250: f690 0b3b e862 203d 9ae5 0e3d 588a 603c
00000260: cd84 d23c 930f ab3c 5c03 68bd c57a 6f3d
00000270: 0e4d ef3b 26ad dabc 90eb 283c f6f8 7fbd
00000280: f503 193d b20b e4bc 73b8 3bbd 71a3 703d
00000290: bc96 3b3d 8415 28bd 5496 573d 2128 593d
000002a0: 0e27 82bd 0fed 0dbd faff 7cbc c0bc d83c
000002b0: ecff 863d 9d57 89bd ccfa 833d 5862 d7bc
000002c0: aa61 eb3c 27b1 c23c 792a 883d ed67 463d
000002d0: 3307 6d3d 502c 993c 5ea7 873d 8268 22bd
000002e0: 51ca 6d3d 77fb 12bc ccf8 423c 312e 8b3c
000002f0: 2e8b 943c 133d 543d 65fc 073c 250d 81bd
00000300: 02ab 79bc 09da b0bc 5ed9 14bd 2f28 85bd
00000310: ad12 c5bb 1d2e 233d 6bc3 133d bf7d f6bc
00000320: e031 d33c c25e 3abc 0c1a b4bb 00a9 11bd
00000330: c9cc 3abd a491 34bd 4681 7cbd 69c0 06bd
00000340: c118 7dbd 8d28 39bd 83d6 5b3c 6e0b 11bd
00000350: f338 a83c 2674 03bd 48d3 85bd 11d1 673c
00000360: eeef 32bd 208e 2ebd c103 2b3c 3372 603d
00000370: 0451 803d 4719 093d 0472 61bd 24b4 72bd
00000380: 02bc f6bc 95d2 823d b2a7 8a3c c0b2 9d3c
00000390: 32b8 6bbd 5949 003d beaa c53b a954 d33c
000003a0: 9e89 3f3d bd55 22bd fb9b 39bc 0e9f 973c
000003b0: c496 513c c224 38bd 13c2 2bbd f6a0 8c3c
000003c0: 40e5 513d 8548 8a3d 9c4d 0cbd 28cd 3a3d
000003d0: 162c 74bd 7076 2f3b 096c 693c dc39 3ebc
000003e0: 9b45 aabc f3ca 5ebd 2e76 7f3c 4bd0 2dbc
000003f0: 92f7 1e3d f258 193d eb6c 82bd f9bf 2b3d

conv3d_21.bias f4 [16]
-0.055406906 0.026097398 0.06010388 -0.032439936 0.04173835 -0.022056187 -0.061044097 -0.057905365
-0.027204154 0.019807138 0.013385896 0.015243421 0.06067933 0.020593995 0.020961422 -0.027165562
00000000: 5af2 62bd 36ca d53c 7c2f 763d bddf 04bd
00000010: d5f5 2a3d 2daf b4bc 6009 7abd 2d2e 6dbd
00000020: 3fdb debc 9442 a23c 8450 5b3c 8bbf 793c
00000030: e48a 783d bdb4 a83c 4ab7 ab3c 508a debc

conv3d_22.weight f4 [16, 16, 3, 3, 3]
0.016375681 0.0034433024 0.03223047 -0.014694731 -0.0217777 -0.010306566 -0.012605835 -0.013378257
-0.01917806 0.012014108 -0.017932868 0.044165023 0.047942 -0.02911818 -0.04024517 -0.043470822
-0.041747347 -0.020468842 -0.019809246 -0.028909998 -0.042176947 -0.006451971 -0.0073577054 -0.016713817
0.031365633 0.036378182 0.018944344 0.013200307 0.006319533 -0.027902847 -0.036172174 0.0057979343
-0.027239049 0.02511487 -0.043655936 0.0037916275 -0.0021135458 -0.04728307 -0.017262977 0.0069766277
0.032910552 0.015889673 0.011479981 -0.030463636 -0.018784009 0.042539615 0.0036103474 0.03829161
-0.004978952 0.00095644826 0.004178574 0.031567212 -0.023850454 -0.048676286 -0.022960313 0.015927024
-0.027850844 0.041020002 0.021729134 0.025031175 -0.020350847 0.012605973 -0.01735229 0.037391935
0.019122478 0.04139809 -0.05332809 0.02892665 -0.04693134 -0.03210659 0.012236573 -0.036909502
0.0128444815 -0.03852055 -0.010937209 0.024300087 0.008260528 0.040353727 0.0361258 -0.00071629044
0.020764897 0.03570698 0.008020297 -0.028918594 -0.03718405 0.0059344484 -0.043663185 0.035550673
0.04290298 -0.029548083 0.033829305 0.021428218 -0.019081771 0.016827472 0.004325541 0.019137226
-0.028617932 -0.014170089 0.047769822 0.00917402 0.040530812 -0.028836515 -0.028863719 -0.017904507
0.006119492 0.0335032 0.04570545 0.03133374 -0.046151973 0.028294452 -0.052495934 -0.0030231248
-0.049111314 0.03353038 -0.03336429 -0.020824198 0.021133116 -0.04231526 -0.015103454 -0.055711202
-0.005546338 0.010096579 0.013665711 -0.016265165 0.011098601 0.003917382 0.023768337 0.028642446
-0.040587265 -0.02462678 0.034264978 0.019926302 -0.019403473 0.018740803 0.0030093659 -0.037533257
0.011753223 -0.00567681 0.031164203 0.020964475 0.008039877 -0.013370336 -0.019515807 0.031680644
0.04814532 -0.020127133 -0.047168758 -0.045189966 0.022695333 0.025726816 0.038231187 -0.04479707
-0.0045603584 0.01129956 0.04536601 -0.021291932 0.003427151 0.0432244 -0.008902399 0.020214397
-0.03423808 -0.014231343 0.033872 -0.021999085 0.016055487 -0.010764198 0.030656321 0.0032335822
-0.038372774 0.04334996 -0.019020643 -0.0036042854 -0.031968668 0.010616479 -0.002781306 0.00082678377
0.034759026 -0.026879618 -0.0011846245 -0.01860148 -0.038648013 -0.015222875 -0.038383976 0.018256541
0.017316852 0.010141018 -0.020440053 -0.014950838 -0.015925819 0.027721176 0.00051060074 0.0121672135
-0.013697948 -0.036903486 0.018034907 -0.024872407 -0.021426415 -0.0253501 -0.00711002 -0.032865144
-0.016741918 0.046813622 0.008690111 -0.024399463 -0.020550832 0.023136007 -0.043136947 -0.0142002
0.03982033 0.015394493 -0.042072322 -0.008684279 -0.011361478 0.0098305745 -0.013215662 0.03944063
-0.039927382 -0.04043688 -0.0062481673 0.042951666 -0.003965508 0.007605161 0.01922985 0.026319286
0.024937635 0.006778524 0.041681245 -0.025231702 0.037109107 -0.029034238 -0.016735967 -0.039842192
-0.02099511 -0.00795655 0.028076824 -0.011794032 -0.006619768 0.0037948242 0.028586313 0.027622301
-0.030821802 -0.013452103 -0.0061632795 -0.043823525 0.021622071 0.03702986 -0.03374003 -0.012101954
-0.013810677 -0.0053563844 0.0246496 0.031944484 -0.03793278 -0.00021855906 0.00215687 -0.026825018
00000000: 4b26 863c 07a9 613b 1904 043d 2bc2 70bc
00000010: 2667 b2bc dfdc 28bc b488 4ebc 7a30 5bbc
00000020: 4f1b 9dbc d2d6 443c f3e7 92bc 62e6 343d
00000030: d55e 443d 4089 eebc 1fd8 24bd 760e 32bd
00000040: 44ff 2abd 46ae a7bc 0047 a2bc a9d4 ecbc
00000050: bcc1 2cbd 0e6b d3bb e818 f1bb 6aeb 88bc
00000060: 4079 003d 4a01 153d 2b31 9b3c 1a46 583c
00000070: 1614 cf3b 8394 e4bc 4629 14bd 99fc bd3b
00000080: 6d24 dfbc b3bd cd3c 91d0 32bd f47c 783b
00000090: 6a83 0abb e4ab 41bd 166b 8dbc 329c e43b
000000a0: 37cd 063d 0f2b 823c 8816 3c3c e08e f9bc
000000b0: ece0 99bc 053e 2e3d 949b 6c3b aad7 1c3d
000000c0: 7a26 a3bb 28ba 7a3a 6bec 883b 9f4c 013d
000000d0: 0762 c3bc c960 47bd 4417 bcbc 6479 823c
000000e0: 7427 e4bc 9704 283d 4c01 b23c 2e0e cd3c
000000f0: d2b6 a6bc 4889 4e3c 6426 8ebc 4928 193d
00000100: bea6 9c3c 0b91 293d 8e6e 5abd 95f7 ec3c
00000110: 143b 40bd 3382 03bd e87b 483c 6b2e 17bd
00000120: a971 523c b9c7 1dbd fb31 33bc fa10 c73c
00000130: 2a57 073c f349 253d a6f8 133d 70c5 3bba
00000140: 251b aa3c 7b41 123d 9067 033c b0e6 ecbc
00000150: 4d4e 18bd c375 c23b 2bd8 32bd 959d 113d
00000160: 09bb 2f3d d20e f2bc 9990 0a3d 3b8a af3c
00000170: 6051 9cbc c4d9 893c 45bd 8d3b acc5 9c3c
00000180: 2770 eabc a929 68bc 4aaa 433d a14e 163c
00000190: a303 263d 8e3a ecbc 9b73 ecbc 79ac 92bc
000001a0: 0586 c83b a73a 093d a335 3b3d cf57 003d
000001b0: da09 3dbd c4c9 e73c fa05 57bd 9e1f 46bb
000001c0: f228 49bd 2757 093d fea8 08bd 8297 aabc
000001d0: 5b1f ad3c c452 2dbd 7a74 77bc 6e31 64bd
000001e0: 0ebe b5bb 1f6c 253c 25e6 5f3c 863e 85bc
000001f0: e8d6 353c 625d 803b d1b5 c23c 90a3 ea3c
00000200: d53e 26bd 1abe c9bc 6f59 0c3d 7c3c a33c
00000210: 08f4 9ebc 5086 993c c838 453b 79bc 19bd
00000220: 9790 403c 8904 babb 124c ff3c b1bd ab3c
00000230: b0b9 033c 410f 5bbc 9ddf 9fbc 90c3 013d
00000240: 0734 453d a8e1 a4bc 0734 41bd 1d19 39bd
00000250: 90eb b93c 0bc1 d23c 4e98 1c3d 227d 37bd
00000260: 0f6f 95bb ca21 393c b6d1 393d 6b6c aebc
00000270: 0d9a 603b 120c 313d 5edb 11bc aa98 a53c
00000280: 3b3d 0cbd 942a 69bc 5ebd 0a3d 6d37 b4bc
00000290: cc86 833c 525c 30bc f722 fb3c 82ea 533b
000002a0: c52c 1dbd ba8f 313d 2ed1 9bbc e035 6cbb
000002b0: 94f1 02bd bef0 2d3c 9246 36bb 85bc 583a
000002c0: 7b5f 0e3d a532 dcbc 6745 9bba 2262 98bc
000002d0: 614d 1ebd 5e69 79bc 8438 1dbd be8e 953c
000002e0: 12dc 8d3c 8326 263c e671 a7bc 5cf4 74bc
000002f0: dd76 82bc 8517 e33c d6d9 053a fe58 473c
00000300: 5c6d 60bc 1c28 17bd f1bd 933c 38c1 cbbc
00000310: 7386 afbc 03ab cfbc 2cfb e8bb 9a9d 06bd
00000320: 5926 89bc a4bf 3f3d f860 0e3c 62e1 c7bc
00000330: 385a a8bc b987 bd3c 5eb0 30bd f5a7 68bc
00000340: a41a 233d 2f39 7c3c 0754 2cbd 8248 0ebc
00000350: 7e25 3abc 6b10 213c 8186 58bc 7f8c 213d
00000360: e58a 23bd 24a1 25bd 6dbd ccbb 16ee 2f3d
00000370: 18f1 81bb b734 f93b eb87 9d3c 8b9b d73c
00000380: 034a cc3c 611e de3b f4b9 2a3d b7b2 cebc
00000390: b8ff 173d 36d9 edbc de19 89bc 9131 23bd
000003a0: f0fd abbc 315c 02bc 5e01 e63c c13b 41bc
000003b0: a4ea d8bb 96b2 783b d82d ea3c 2a48 e23c
000003c0: 017e fcbc 3666 5cbc 56f5 c9bb 4c80 33bd
000003d0: c520 b13c 9fac 173d fc32 0abd 4647 46bc
000003e0: 2e46 62bc 9c84 afbb f5ed c93c 38d8 023d
000003f0: 675f 1bbd 002d 65b9 465a 0d3b 24c0 dbbc

conv3d_22.bias f4 [16]
-0.10682173 0.05027234 -0.08482717 -0.02404393 -0.07694328 -0.011230253 0.0967948 -0.015006745
0.062164888 0.0048262514 0.044840213 -0.046206705 -0.0268926 -0.021690866 0.079176985 0.042020462
00000000: 5ac5 dabd 5fea 4d3d deb9 adbd c7f7 c4bc
00000010: 7094 9dbd 18ff 37bc 5a3c c63d dade 75bc
00000020: 9ca0 7e3d 8825 9e3b 5faa 373d 3e43 3dbd
00000030: df4d dcbc 0bb1 b1bc 8b27 a23d a61d 2c3d

conv3d_31.weight f4 [32, 16, 3, 3, 3]
0.012980606 -0.010526087 -0.035157967 -0.040431317 -0.030747756 -0.02849002 0.030713815 -0.017443463
-0.02113061 -0.0066606556 0.008844168 -0.026322825 0.023776617 0.03951746 0.014239762 0.034416687
-0.022842854 0.028487358 0.03551751 -0.025291102 0.040907215 0.002430887 0.037952483 -0.024678087
0.012427683 0.031614404 -0.008044269 0.03302483 -0.03919619 -0.009866362 0.039147742 -0.034606088
-0.043376524 -0.048739582 -0.026974106 -0.052962944 -0.010324639 0.013144858 0.030021917 -0.010435932
-0.04837133 -0.01520374 -0.050929964 -0.04178372 -0.02348908 -0.03685323 -0.0028017452 -0.05224598
0.032839768 -0.04049123 0.021017887 -0.020318432 -0.04654926 0.015154296 -0.02042836 0.02153096
-0.023135595 0.019931948 0.017028084 -0.034549486 0.020129262 0.04096472 0.008316587 -0.014626311
0.039550923 0.04444304 0.035865184 -0.011977451 -0.031705786 -0.03102501 -0.011282947 -0.007942321
0.026264004 -0.040029854 -0.034987584 0.021179888 0.034456197 -0.005296282 0.03198592 0.02378749
-0.0052459673 0.004498843 -0.046541106 -0.025503581 -0.032927256 0.024537068 -0.03904548 -0.02183319
0.038438212 -0.005370144 -0.015285332 0.015887823 -0.033721004 -0.033963773 -0.020248255 0.017726634
-0.043718494 0.038154345 0.00748064 -0.03607907 -0.03423181 -0.01640739 0.04164293 0.013442304
-0.010248795 0.013826478 -0.010614764 -0.041924242 -0.005662676 0.00814478 -0.037953485 -0.025095502
0.013753247 0.022306219 -0.036836054 0.013022883 0.023692368 0.03506056 -0.03624303 -0.043735445
-0.041513823 -0.022444194 -0.047172904 0.032014474 0.03488067 -0.020103022 0.03126719 -0.030283926
0.03065679 -0.0065498054 -0.025233861 0.011866187 -0.02209311 0.007262444 0.023509456 -0.003024388
-0.02675835 -0.021674508 0.04412661 -0.04668151 0.023078505 -0.04663171 -0.03745633 -0.040007744
-0.044888683 0.04663082 -0.031209229 0.04716454 -0.018668754 0.03396154 -0.016327608 0.03582738
0.04644486 -0.043730363 0.03546499 -0.043320104 0.007029649 0.012660105 0.040620048 0.037044626
0.038455617 0.00829592 0.024871254 -0.016747728 0.020577084 -0.002413973 0.00702116 0.0449176
0.011948894 -0.02619306 0.02171966 -0.040794663 0.0035278124 -0.021757843 0.0003362014 0.031552356
-0.0003843184 0.03493801 -0.04892867 0.023659809 0.03466865 -0.031628273 -0.008405646 0.0099322125
-0.020850176 -0.005786523 0.022094337 -0.016926518 0.022057122 -0.003317567 0.042989902 -0.01716589
0.019200036 -0.027035115 0.039437316 0.022372494 -0.0022480134 -0.020089082 -0.007354169 0.04738079
0.0307919 0.005871763 -0.028885737 0.046803847 0.030441102 0.03164736 -0.021491885 0.009933957
0.026358763 -0.043593075 0.028585715 0.033732664 0.011564057 0.041691687 -0.005910723 0.036352027
0.02519455 -0.018136123 0.03294875 -0.011694119 -0.04846599 -0.021667674 -0.04650005 0.024902493
-0.0002230748 -0.040628254 -0.037930124 0.035933424 -0.018871836 0.0018481765 0.025256636 0.011106058
-0.0011912003 -0.041014507 0.023975043 0.035487983 0.0031781504 0.027370933 0.032652654 -0.038849786
-0.04578651 -0.042383775 0.006037636 0.028666245 -0.027978636 0.04987211 0.018594878 -0.0035433061
0.043159693 -0.027390087 0.008292736 0.036105774 0.047058795 -0.027935842 0.014451333 0.025858631
00000000: 9cac 543c 9c75 2cbc cd01 10bd 4f9b 25bd
00000010: b8e2 fbbc e763 e9bc 8a9b fb3c 98e5 8ebc
00000020: 1a1a adbc a141 dabb 21e7 103c f7a2 d7bc
00000030: 2ec7 c23c 0fdd 213d e44d 693c 83f8 0c3d
00000040: f020 bbbc 525e e93c cf7a 113d 492f cfbc
00000050: 538e 273d 844f 1f3b 1074 1b3d b329 cabc
00000060: 7b9d 4b3c 1b7e 013d 1ccc 03bc 0b45 073d
00000070: 2f8c 20bd 86a6 21bc 6259 203d 1dbf 0dbd
00000080: 95ab 31bd 28a3 47bd cdf8 dcbc acef 58bd
00000090: ad28 29bc 885d 573c 86f0 f53c 79fb 2abc
000000a0: 0421 46bd 1c19 79bc f09b 50bd 6825 2bbd
000000b0: 2c6c c0bc 6af3 16bd 7c9d 37bb e1ff 55bd
000000c0: fe82 063d 22da 25bd b42d ac3c d772 a6bc
000000d0: 70aa 3ebd b949 783c 6059 a7bc b261 b03c
000000e0: dc86 bdbc 5348 a33c 7b7e 8b3c c383 0dbd
000000f0: 1fe6 a43c 9fca 273d 4b42 083c 32a3 6fbc
00000100: 2600 223d e809 363d 5fe7 123d 123d 44bc
00000110: eddd 01bd 2928 febc 1cdc 38bc 8220 02bc
00000120: 9c27 d73c 58f6 23bd 244f 0fbd 7281 ad3c
00000130: f121 0d3d 6f8c adbb ab03 033d fbdd c23c
00000140: 5de6 abbb 086b 933b e3a1 3ebd e3ec d0bc
00000150: bbde 06bd f601 c93c 27ee 1fbd 85db b2bc
00000160: 6371 1d3d 08f8 afbb 546f 7abc 2e27 823c
00000170: 091f 0abd 991d 0bbd abdf a5bc 7237 913c
00000180: 2a12 33bd bb47 1c3d 2820 f53b a6c7 13bd
00000190: a836 0cbd ca68 86bc c791 2a3d 1c3d 5c3c
000001a0: 90ea 27bc 7488 623c 8ce9 2dbc c1b8 2bbd
000001b0: f88d b9bb af71 053c 1d75 1bbd 1595 cdbc
000001c0: 4d55 613c 88bb b63c 67e1 16bd ee5d 553c
000001d0: 7f16 c23c a99b 0f3d 9273 14bd f023 33bd
000001e0: 660a 2abd e3dc b7bc 6038 41bd 9c21 033d
000001f0: 09df 0e3d 18af a4bc 0612 003d ff15 f8bc
00000200: f323 fb3c c09f d6bb 3eb7 cebc 656a 423c
00000210: 9cfc b4bc ccf9 ed3b e796 c03c d034 46bb
00000220: 5434 dbbc bd8e b1bc 1bbe 343d 1c35 3fbd
00000230: 220f bd3c e400 3fbd cf6b 19bd 29df 23bd
00000240: 32dd 37bd f5ff 3e3d 7faa ffbc 9b2f 413d
00000250: 37ef 98bc 411b 0b3d 7ac1 85bc bbbf 123d
00000260: f73c 3e3d 9c1e 33bd bd43 113d 6c70 31bd
00000270: f858 e63b 546c 4f3c 3561 263d 1bbc 173d
00000280: a383 1d3d 9ceb 073c cdbe cb3c 8832 89bc
00000290: 4691 a83c bf33 1ebb c211 e63b 84fb 373d
000002a0: 4bc5 433c d492 d6bc 6eed b13c 4e18 27bd
000002b0: df32 673b 813d b2bc 3044 b039 0b3d 013d
000002c0: 587e c9b9 291b 0f3d 6e69 48bd 37d2 c13c
000002d0: b700 0e3d a68c 01bd d6b7 09bc b8ba 223c
000002e0: fdcd aabc e09c bdbb 2fff b43c 7ba9 8abc
000002f0: 23b1 b43c 8a6b 59bb 2e16 303d 7b9f 8cbc
00000300: 6549 9d3c bf78 ddbc 0689 213d 8546 b73c
00000310: 6853 13bb dc91 a4bc 3efb f0bb 5c12 423d
00000320: 4b3f fc3c eb67 c03b c8a1 ecbc 64b5 3f3d
00000330: 9e5f f93c aaa0 013d c00f b0bc 09c2 223c
00000340: 55ee d73c a78e 32bd 972c ea3c 432b 0a3d
00000350: 2c77 3d3c e7c4 2a3d bdae c1bb dde5 143d
00000360: cd64 ce3c 3592 94bc 45f5 063d b198 3fbc
00000370: 4684 46bd 6880 b1bc d676 3ebd 5000 cc3c
00000380: 30e9 69b9 d069 26bd 9e5c 1bbd ed2e 133d
00000390: 1c99 9abc 833e f23a 01e7 ce3c 2ff6 353c
000003a0: 0d22 9cba d4fe 27bd 4f67 c43c d95b 113d
000003b0: 8448 503b 0239 e03c cabe 053d f420 1fbd
000003c0: a38a 3bbd 9c9a 2dbd 5dd7 c53b 79d5 ea3c
000003d0: 7433 e5bc b346 4c3d 4954 983c d036 68bb
000003e0: 38c8 303d 2d61 e0bc 41de 073c a6e3 133d
000003f0: b9c0 403d b5d9 e4bc 49c5 6c3c 7bd5 d33c

conv3d_31.bias f4 [32]
0.0146376435 -0.020507768 0.07520818 0.00810246 -0.03734433 -0.002638847 0.021873282 -0.012390893
-0.0663403 -0.026686475 0.07976637 -0.051231474 -0.029310843 0.099077575 0.1543565 -0.044253387
-0.023983488 -0.010692417 -0.03511487 0.07715754 -0.009227202 -0.0036171684 0.14592274 -0.037609294
0.016653407 -0.012212507 -0.035762515 0.15489928 -0.0060965815 -0.0471938 -0.03908062 -0.0588342
00000000: bad2 6f3c e8ff a7bc bf06 9a3d 2ec0 043c
00000010: 5ef6 18bd 82f0 2cbb 992f b33c 2c03 4bbc
00000020: 6cdd 87bd 989d dabc 8d5c a33d 18d8 51bd
00000030: 4b1d f0bc 2fe9 ca3d a10f 1e3e 0a43 35bd
00000040: 0579 c4bc 3f2f 2fbc 9cd4 0fbd c604 9e3d
00000050: b12d 17bc 040e 6dbb c56c 153e 340c 1abd
00000060: ba6c 883c f816 48bc b77b 12bd eb9d 1e3e
00000070: d5c5 c7bb 494e 41bd 0013 20bd 21fc 70bd

conv3d_32.weight f4 [32, 32, 3, 3, 3]
-0.033773765 -0.0275199 0.017333584 -0.002266955 -0.02505651 0.03224019 -0.034600973 0.023683894
0.0106895445 0.020483656 -0.02234842 0.00571207 -0.02729106 -0.008524318 0.020661589 -0.021005314
0.02377581 0.017498605 -0.035346787 -0.009575222 0.0044849897 -0.0031930124 0.01862065 -0.019544022
0.031036729 -0.009607161 -0.00032948283 0.014958598 0.018231347 -0.02386637 -0.0040140823 -0.0026040338
-0.0043758024 -0.019486532 0.029693231 0.0061576627 0.0029994547 0.0071122423 -0.022324797 -0.02772839
0.01542538 0.004139602 0.010597579 -0.033835266 -0.027039446 0.020698212 -0.0038872603 0.0061404146
-0.0026582778 -0.02707377 0.019401938 0.028305572 0.007844526 -0.015422784 -0.014354339 0.029008318
-0.0033476045 0.023636967 -0.032284155 0.005416533 0.024359427 -0.013787829 -0.01718192 -0.0041589867
0.021592766 0.011595512 0.008313172 0.027295439 -0.01580168 0.021480374 -0.002636845 -0.031702593
0.0042554503 -0.018961983 -0.017292717 -0.0013030783 -0.0147215165 0.02471427 0.017002406 0.017094975
-0.0047648717 -0.0054006414 -0.0292031 0.011502066 0.024451233 0.0084491065 -0.0008114773 -0.001615749
0.0006117197 -0.028313838 0.029775418 -0.021607257 -0.011383438 0.011400515 0.012198818 0.00917917
-0.026522866 0.008827861 -0.031099673 -0.016462192 -0.02181271 0.009758618 -0.021488158 0.021192227
0.011522163 0.016246313 -0.026508123 0.03286186 0.005459657 0.018616877 0.026886664 0.005146242
0.02507694 0.03129589 -0.02004924 -0.024751676 -0.030842898 0.01774906 0.022957707 -0.027681967
-0.025435533 -0.015684472 0.018176293 0.028039737 0.006589943 0.032363303 -0.020735668 0.0019058529
0.0044975174 -0.03229672 -0.008530055 -0.027304478 -0.030383632 -0.021297568 0.0032240215 -0.01856307
0.00837107 -0.015534298 -0.007410959 -0.023343354 -0.032539003 0.030324934 -0.008379327 0.01713832
0.0018388677 -0.03381785 0.012731773 -0.0025021504 -0.028765779 -0.020522915 0.022936484 -0.017015727
0.029368691 0.0055106776 -0.025915802 0.019481307 0.030287176 0.0020501823 -0.008317735 -0.024893027
0.021866947 0.033340972 0.014407989 0.009873806 -0.0070035853 -0.009044722 0.008094409 0.0154522015
-0.029607471 0.0048426404 0.0049471115 -0.016212484 -0.028462812 0.01930546 -0.012008174 0.013166163
0.0018195868 -0.036737863 0.026069459 0.0068917857 -0.027638374 -0.016544444 -0.025893148 -0.017086675
-0.0022977642 -0.024280522 0.025520606 0.024286712 -0.009441328 -0.026581112 -0.012322368 -0.030082531
0.00783395 -0.0024893433 0.020373065 0.011351075 -0.00828347 -0.00630551 0.032077916 0.013554119
0.009165857 -0.023174876 0.03342054 0.00018266216 -0.009788409 0.013848577 -0.026854262 0.0051041506
-0.032312583 -0.01998942 0.033156462 -0.0005967356 0.008342084 0.0169755 0.0046154894 -0.02321127
0.017675677 0.021429617 -0.025264807 -0.02764757 0.023550758 -0.030419586 -0.002731856 0.024670482
-0.01518127 0.01725375 -0.011188385 0.026646445 -0.00013884285 0.014609603 0.008633703 -0.010144816
-0.013231725 0.03373334 -0.0035873014 0.027857775 0.030771269 0.013211855 0.010750217 -0.02068079
-0.0023998762 0.016961543 -0.024261175 -0.03131308 -0.003907742 0.017233824 -0.015806867 0.01834797
0.010725204 -0.033905685 -0.029886542 -0.025505597 -0.03429417 -0.0064924248 0.028036669 -0.033520967
00000000: 5c56 0abd 6a71 e1bc 29ff 8d3c 3291 14bb
00000010: 4f43 cdbc 4a0e 043d c0b9 0dbd ba04 c23c
00000020: 3323 2f3c 57cd a73c 0914 b7bc 512c bb3b
00000030: 8091 dfbc 95a9 0bbc 7e42 a93c 5613 acbc
00000040: 7dc5 c23c 3c59 8f3c cbc7 10bd 64e1 1cbc
00000050: d2f6 923b dc41 51bb 558a 983c c91a a0bc
00000060: bd40 fe3c 5b67 1dbc 70be acb9 e814 753c
00000070: e859 953c 6883 c3bc 9088 83bb 70a8 2abb
00000080: e462 8fbb 38a2 9fbc 383f f33c 38c6 c93b
00000090: 8092 443b d00d e93b 7ee2 b6bc a626 e3bc
000000a0: bcba 7c3c 80a5 873b 78a1 2d3c d996 0abd
000000b0: d481 ddbc 4c8f a93c 68c1 7ebb 8835 c93b
000000c0: 8036 2ebb d0c9 ddbc d0f0 9e3c 16e1 e73c
000000d0: 5486 003c d8af 7cbc 762e 6bbc daa2 ed3c
000000e0: 7c63 5bbb 50a2 c13c 643c 04bd 2c7d b13b
000000f0: 6c8d c73c 59e6 61bc 19c1 8cbc 1c48 88bb
00000100: 50e3 b03c 1afb 3d3c f833 083c af9a df3c
00000110: 8672 81bc 9cf7 af3c ebce 2cbb 94da 01bd
00000120: 4e71 8b3b 2956 9bbc 75a9 8dbc 0dcc aaba
00000130: 8432 71bc 9575 ca3c a148 8b3c c30a 8c3c
00000140: a422 9cbb ddf7 b0bb 573b efbc 2973 3c3c
00000150: f44d c83c 1f6e 0a3c 52b9 54ba 8ac7 d3ba
00000160: d05b 203a 6cf2 e7bc 94eb f33c b401 b1bc
00000170: 9981 3abc 3ac9 3a3c 8ddd 473c 3b64 163c
00000180: 7b46 d9bc bca2 103c bec4 febc b8db 86bc
00000190: 92b0 b2bc 9ce2 1f3c ef07 b0bc 529b ad3c
000001a0: 74c7 3c3c fd16 853c 9027 d9bc 289a 063d
000001b0: ece6 b23b 6c82 983c 6c41 dc3c cfa1 a83b
000001c0: 286e cd3c 1f30 003d 4e3e a4bc 07c4 cabc
000001d0: 3faa fcbc 7a66 913c cd11 bc3c 4bc5 e2bc
000001e0: 2e5e d0bc b97c 80bc 73e6 943c 97b3 e53c
000001f0: 73f0 d73b 628f 043d d9dd a9bc d0cd f93a
00000200: e95f 933b 9149 04bd a5c1 0bbc a4ad dfbc
00000210: 18e7 f8bc 3d78 aebc 1b4a 533b 9411 98bc
00000220: d026 093c 9183 7ebc a1d7 f2bb 903a bfbc
00000230: 9e47 05bd ff6b f83c 7249 09bc a965 8c3c
00000240: 2906 f13a 9684 0abd ed98 503c 1efb 23bb
00000250: 36a6 ebbc ac1f a8bc 4be5 bb3c 9164 8bbc
00000260: 9c96 f03c ea92 b43b 604d d4bc 4397 9f3c
00000270: d01c f83c 5a5c 063b 1c47 08bc 76ec cbbc
00000280: 5022 b33c 8b90 083d 7c0f 6c3c bec5 213c
00000290: 557e e5bb 5030 14bc 699e 043c 3b2b 7d3c
000002a0: 5e8b f2bc 03af 9e3b 611b a23b 0bd0 84bc
000002b0: d82a e9bc 7c26 9e3c efbd 44bc e4b6 573c
000002c0: 347f ee3a 717a 16bd 9e8f d53c 7dd4 e13b
000002d0: df69 e2bc 3788 87bc de1d d4bc 5bf9 8bbc
000002e0: 1696 16bb f2e7 c6bc 9710 d13c edf4 c63c
000002f0: cdaf 1abc a2c0 d9bc c2e3 49bc a46f f6bc
00000300: f859 003c 4024 23bb 6ae5 a63c dcf9 393c
00000310: 64b7 07bc 749e cebb 2264 033d 1812 5e3c
00000320: 642c 163c 3dd9 bdbc fae3 083d 0089 3f39
00000330: 905f 20bc 24e5 623c 78fd dbbc b840 a73b
00000340: 335a 04bd dac0 a3bc 12cf 073d 406e 1cba
00000350: 3cad 083c 3410 8b3c 883d 973b 9025 bebc
00000360: 95cc 903c 2a8d af3c 24f8 cebc 287d e2bc
00000370: 85ed c03c 7f32 f9bc f008 33bb c019 ca3c
00000380: ddba 78bc bc57 8d3c 7d4f 37bc a549 da3c
00000390: 5896 11b9 1e5d 6f3c 6074 0d3c 7136 26bc
000003a0: e1c9 58bc f92b 0a3d ee18 6bbb fd35 e43c
000003b0: 0714 fc3c 8976 583c ae21 303c c36a a9bc
000003c0: 3e47 1dbb eff2 8a3c 5fbf c6bc 2542 00bd
000003d0: 840c 80bb f32d 8d3c 677d 81bc 7b4e 963c
000003e0: c4b8 2f3c b0e0 0abd 9fd4 f4bc 1df1 d0bc
000003f0: 0b78 0cbd 68be d4bb 28ad e53c 484d 09bd

conv3d_32.bias f4 [32]
0.018454824 -0.028736576 0.008307603 -0.033709034 0.75229657 0.03127576 0.007120546 0.032250706
-0.033867385 0.029916186 -0.0043230704 0.015428212 -0.02179852 -0.026301078 0.0036452266 -0.028725155
0.0035903305 -0.017595608 -0.017060779 -0.033533104 -0.009948224 -0.031318415 -0.010181286 -0.03061623
-0.015073303 -0.022689674 -0.033811536 -0.0126434835 0.0067185117 0.0054964144 -0.017332567 -0.0032450922
00000000: 922e 973c f868 ebbc 9d1c 083c 7c12 0abd
00000010: 8296 403f 031b 003d 7853 e93b 5119 043d
00000020: 87b8 0abd ca12 f53c 8ba8 8dbb 9cc6 7c3c
00000030: cf92 b2bc 5c75 d7bc c1e4 6e3b 0451 ebbc
00000040: c04b 6b3b aa24 90bc 0cc3 8bbc 025a 09bd
00000050: e0fd 22bc bd47 00bd 69cf 26bc e3ce fabc
00000060: 04f6 76bc b2df b9bc f77d 0abd 9d26 4fbc
00000070: f626 dc3b 441b b43b 07fd 8dbc 9dab 54bb

up3.up.1.weight f4 [16, 32, 3, 3, 3]
0.0064582317 0.014962005 -0.022571327 0.0045012003 0.023937397 -0.033613075 -0.017298222 -0.014759429
0.024825178 0.00015655742 -0.019027354 0.008665466 -0.0010776941 0.034069844 -0.021791566 0.007328971
-0.02938339 -0.026537921 0.0032845212 -0.012473055 0.018522529 0.0050225263 0.030878948 0.022310095
0.022030203 0.021327697 -0.030482505 -0.010740455 -0.025397282 0.015204847 -0.024650099 -0.031581182
0.006377749 0.0072814077 0.011628024 0.0026613995 -0.024493154 0.0057305917 -0.006664766 -0.004066918
-0.017594885 0.031024933 -0.008530602 0.0101873465 -0.026512945 0.013056859 -0.021947473 0.022658598
0.024437796 0.007366352 0.028355591 -0.022526927 -0.0034678318 0.0039961226 0.021093085 -0.016773554
0.0109120095 0.015378153 0.010477545 -0.024086647 -0.023020465 0.002573957 -0.012660039 -0.014260839
0.023655972 -0.002695669 -0.018818744 0.006874482 0.026624093 0.0067933043 0.022507533 0.028452218
0.034113176 0.02707335 0.03169624 -0.02938232 -0.0043468988 0.0040530995 0.012151515 -0.018264152
0.005703221 -0.012699409 0.009118782 -0.020703355 0.012217295 -0.002033298 -0.01946697 -0.030587927
-0.006701735 0.0072707226 -0.02203246 0.021026537 0.0107040685 -0.02407285 -0.022328053 0.0066954936
-0.032283492 0.018809604 0.005674514 0.0065727667 -0.016868347 0.02657932 0.023136301 -0.022308951
-0.024937147 -0.027675955 -0.022566378 0.03175418 -0.019509269 0.01185901 -0.03325853 0.023864713
0.02426801 -0.004272607 0.00076198287 -0.02135676 -0.009533994 -0.016042223 -0.017572854 -0.00019419556
-0.021760223 -0.0066730813 -0.019358465 -0.03332522 0.010901613 -0.00418829 -0.032831308 -0.004423314
-0.019659275 -0.0026230845 -0.042692013 -0.024360955 -0.040782463 -0.026595674 -0.014788928 0.01987209
-0.023850946 0.016563963 0.017624358 0.0020779362 0.025870416 0.016205104 0.0038027174 -0.031844776
0.003874534 0.028277071 -0.00089572323 0.0315025 -0.010895296 0.014974161 0.020464752 -0.0155818155
0.022672363 -0.029183036 -0.011093947 -0.0037124127 -0.008621372 0.0130547425 0.03492322 0.021093583
-0.0019180103 -0.023103511 -0.022589786 -0.014982382 0.009537368 0.010435804 -0.029133832 0.033200804
-0.0016442238 -0.010532406 -0.005063677 -0.018651886 0.0045159436 -0.013421134 -0.0036456608 -0.017197048
0.019828962 -0.03080033 0.0018281545 0.0030449543 -0.018221973 0.016209593 0.00039711973 0.0058185183
0.0011442148 -0.01784574 0.025690036 0.022882232 0.026923347 0.014567678 -0.00047703824 -0.008827185
-0.018649787 0.030793328 0.02752275 -0.0066401944 0.024536297 -0.0043155295 0.025272118 0.012902986
0.004109306 0.017817635 -0.0055446783 0.025429381 -0.007842089 -0.028734758 0.011176198 -0.022024756
-0.0008257554 -0.01092932 -0.0033529724 -0.0153007 -0.011945309 -0.032556746 0.0134631 -0.0034482928
0.005652855 -0.019022195 -0.026998322 -0.016936854 -0.025677845 0.020170813 -0.028091913 0.027237866
-0.016081557 -0.015180772 -0.023444906 -0.025182398 0.012393158 -0.013828861 0.023666542 0.023017589
-0.0021451886 0.011697278 0.015112642 0.03341617 -0.01455418 0.020284543 0.013975276 0.02658298
0.009263866 -0.0036974908 0.019979138 0.012773724 -0.011120864 -0.026353283 -0.025712704 -0.016397497
-0.030452196 0.029442515 -0.01197926 0.00060986524 0.012091316 0.018099194 -0.025394032 -0.026114225
00000000: 939f d33b 3323 753c 81e7 b8bc ce7e 933b
00000010: 5c18 c43c ddad 09bd 00b5 8dbc 88d1 71bc
00000020: 2c5e cb3c 9029 2439 41df 9bbc 99f9 0d3c
00000030: 6a41 8dba d28c 0b3d 3a84 b2bc dd27 f03b
00000040: 6fb5 f0bc 0e66 d9bc 1f41 573b c95b 4cbc
00000050: 8fbc 973c 0194 a43b d9f5 fc3c a9c3 b63c
00000060: af78 b43c 6cb7 ae3c 72b6 f9bc bcf8 2fbc
00000070: f60d d0bc c01d 793c 01ef c9bc 455b 01bd
00000080: 70fc d03b e098 ee3b 7883 3e3c e06a 2e3b
00000090: dea5 c8bc b0c7 bb3b 1c64 dabb c843 85bb
000000a0: 2623 90bc 0028 fe3c f0c3 0bbc d4e8 263c
000000b0: ad31 d9bc 70ec 553c 30cb b3bc 869e b93c
000000c0: c631 c83c 7061 f13b fc49 e83c 648a b8bc
000000d0: 9044 63bb e8f1 823b 68cb ac3c b168 89bc
000000e0: 49c8 323c a6f4 7b3c 02aa 2b3c 5c51 c5bc
000000f0: 6a95 bcbc d5af 283b 0d6c 4fbc 4ba6 69bc
00000100: 2bca c13c d2a9 30bb c429 9abc 5643 e13b
00000110: c51a da3c 5e9a de3b b861 b83c a014 e93c
00000120: 42ba 0b3d eec8 dd3c ebd3 013d 31b3 f0bc
00000130: 6e70 8ebb ddcf 843b 2617 473c b49e 95bc
00000140: 16e2 ba3b 2f11 50bc f266 153c 159a a9bc
00000150: 0d2b 483c 1441 05bb 3279 9fbc 8893 fabc
00000160: 3a9a dbbb 3e3f ee3b 6b7d b4bc d83f ac3c
00000170: 1e60 2f3c 6d34 c5bc 52e9 b6bc df65 db3b
00000180: b23b 04bd 9916 9a3c 46f1 b93b 5d60 d73b
00000190: 7d2f 8abc e0bc d93c 5788 bd3c 43c1 b6bc
000001a0: fd48 ccbc afb8 e2bc 20dd b8bc ac10 023d
000001b0: e7d1 9fbc 4b4c 423c 193a 08bd ee7f c33c
000001c0: b5cd c63c 3a01 8cbb cebf 473a 5ff4 aebc
000001d0: 7834 1cbc fb6a 83bc f2f4 8fbc f9a0 4bb9
000001e0: 7f42 b2bc dda9 dabb a595 9ebc 0780 08bd
000001f0: ae9c 323c ec3d 89bb 1f7a 06bd 72f1 90bb
00000200: 7d0c a1bc 0ee8 2bbb d2dd 2ebd a090 c7bc
00000210: 830b 27bd 2cdf d9bc 434d 72bc cbca a23c
00000220: 0f63 c3bc 26b1 873c f560 903c fc2d 083b
00000230: 32ee d33c 91c0 843c 0337 793b ab6f 02bd
00000240: e5eb 7d3b 51a5 e73c f8ce 6aba c408 013d
00000250: 2f82 32bc 2f56 753c b2a5 a73c df4a 7fbc
00000260: 64bb b93c 4311 efbc 63c3 35bc f34b 73bb
00000270: a840 0dbc 8fe3 553c a60b 0f3d 73cc ac3c
00000280: bf65 fbba 9343 bdbc 370e b9bc aa78 75bc
00000290: 9f42 1c3c effa 2a3c 13aa eebc 91fd 073d
000002a0: ff82 d7ba 1d90 2cbc 34ed a5bb d7cb 98bc
000002b0: 7bfa 933b 51e4 5bbc 0aec 6ebb d3e0 8cbc
000002c0: 5970 a23c f950 fcbc b09e ef3a db8d 473b
000002d0: 3f46 95bc fbc9 843c 8234 d039 45a9 be3b
000002e0: 7af9 953a 3b31 92bc e973 d23c 8573 bb3c
000002f0: 5a8e dc3c 45ad 6e3c fd1a fab9 e69f 10bc
00000300: 70c7 98bc 4a42 fc3c 6477 e13c fd95 d9bb
00000310: 5800 c93c 4969 8dbb 7907 cf3c 0c67 533c
00000320: 5ba7 863b 4af6 913c 22b0 b5bb 4751 d03c
00000330: 1b7c 00bc 2865 ebbc 5f1c 373c 436d b4bc
00000340: 8277 58ba e410 33bc 8bbd 5bbb caaf 7abc
00000350: 42b6 43bc 395a 05bd 5694 5c3c c1fc 61bb
00000360: 963b b93b 6fd4 9bbc 962b ddbc 28bf 8abc
00000370: 585a d2bc 433d a53c 0321 e6bc f221 df3c
00000380: 78bd 83bc c6b8 78bc 880f c0bc 514b cebc
00000390: ac0c 4b3c 7292 62bc 56e0 c13c 628f bc3c
000003a0: 4b96 0cbb f1a5 3f3c 049b 773c 65df 083d
000003b0: a874 6ebc c52b a63c 8ef8 643c 8dc4 d93c
000003c0: 78c7 173c 9a51 72bb 4aab a33c e248 513c
000003d0: 4934 36bc d7e2 d7bc 73a3 d2bc 0b54 86bc
000003e0: e276 f9bc 6e31 f13c a844 44bc 5ddf 1f3a
000003f0: a81a 463c c344 943c 2507 d0bc 80ed d5bc

up3.up.1.bias f4 [16]
-0.006838782 -0.017967468 -0.037957303 0.014608695 -0.0066965567 -0.030967403 -0.031954873 0.010881691
-0.011049801 -0.016397618 -0.026715444 -0.030635212 0.02449438 0.030637827 -0.0037034664 0.014124378
00000000: dd17 e0bb 8330 93bc 1e79 1bbd 4f59 6f3c
00000010: ca6e dbbb 5aaf fdbc 1de3 02bd 1f49 323c
00000020: 390a 35bc 4c54 86bc 59da dabc b2f6 fabc
00000030: 70a8 c83c 2efc fa3c dbb5 72bb ef69 673c

up3.up.2.weight f4 [16]
1.0022308 1.0017428 1.0052897 0.999033 0.99846786 0.9986082 0.99891406 1.0056323
0.99995834 1.000888 0.99790865 0.9990974 0.9992423 0.9998455 0.9999063 0.99799186
00000000: 1949 803f 1c39 803f 55ad 803f a0c0 7f3f
00000010: 979b 7f3f c9a4 7f3f d5b8 7f3f 8fb8 803f
00000020: 45fd 7f3f 191d 803f f176 7f3f d9c4 7f3f
00000030: 58ce 7f3f e0f5 7f3f dcf9 7f3f 657c 7f3f

up3.up.2.bias f4 [16]
0.023145044 0.063842855 0.06590638 -0.0015587319 -0.004453713 -0.004964075 -0.016214391 0.08153854
0.013457681 0.02698105 0.013115832 0.032065388 -0.002437607 0.000112373156 0.013295045 0.048013184
00000000: ad9a bd3c 0bc0 823d edf9 863d 5d4e ccba
00000010: 74f0 91bb aea9 a2bb 0bd4 84bc aefd a63d
00000020: 9b7d 5c3c 5d07 dd3c c9e3 563c ff56 033d
00000030: 42c0 1fbb e1a9 eb38 76d3 593c 79a9 443d

up3.up.2.running_mean f4 [16]
-0.25912303 -0.30556998 -0.54526705 0.36032748 -1.0439974 -0.1484601 -0.102119416 -0.19471142
0.027378587 -0.20956744 -0.15070528 0.06769746 0.4870909 0.07967759 -0.024662191 0.2573303
00000000: c6ab 84be ab73 9cbe 9f96 0bbf d87c b83e
00000010: b5a1 85bf ed05 18be fc23 d1bd 6e62 47be
00000020: 0f49 e03c d998 56be 7c52 1abe f7a4 8a3d
00000030: fa63 f93e 012e a33d 5d08 cabc ccc0 833e

up3.up.2.running_var f4 [16]
2.8073503e-06 2.1583419e-06 7.098763e-06 4.4576045e-06 2.1265976e-05 1.1214321e-06 2.4488909e-06 7.283641e-07
8.224176e-06 1.7535557e-06 1.2158885e-05 1.0941066e-05 2.8239965e-06 3.8353633e-06 1.6024104e-06 1.5023589e-05
00000000: e965 3c36 08d8 1036 e931 ee36 8892 9536
00000010: 5664 b237 1d84 9635 a057 2436 cd84 4335
00000020: 91fa 0937 b75b eb35 03fe 4b37 858f 3737
00000030: e483 3d36 85b1 8036 6712 d735 d30d 7c37
