QM9_net.pth (torch_old, 392700 bytes, 32 tensors)

conv3d_11.weight f4 [8, 1, 3, 3, 3]
0.05654792 0.055223722 -0.04904325 0.013292987 -0.13776489 -0.0006611842 0.13524996 -0.055565532
-0.100451685 0.11864685 0.0146094095 0.04637288 0.12773187 -0.06825021 -0.11787469 0.03337012
-0.16713227 0.06966657 0.0062740855 -0.018888548 0.011052727 0.121921934 0.0612205 -0.058842465
-0.014342551 0.041219976 0.13776834 0.03342598 0.019171303 0.16686887 0.0017042143 -0.020744959
0.09214274 -0.1526152 -0.18286183 -0.02176046 0.06450141 0.053843703 0.08410051 0.1316333
-0.1339393 0.09121905 -0.08935455 -0.054318123 -0.009134136 0.16862583 -0.1530699 0.12392147
-0.15396592 -0.051674128 -0.10299246 0.06724397 0.081107855 0.08268501 0.06135079 -0.048263986
0.1134759 -0.13023329 0.04911676 0.07411492 0.16275187 0.02418936 -0.11841135 -0.17181052
-0.15069209 0.053731885 -0.009426396 -0.1108388 -0.08655344 -0.01637923 0.0881564 0.05304776
-0.012275184 0.038866 -0.054364093 0.18641274 -0.045774207 0.026600871 0.06546462 0.13175678
-0.07744198 0.13481519 0.07461727 -0.02531343 0.037668962 0.039860263 -0.041279744 -0.026481397
-0.15393385 0.10482448 -0.065251194 -0.16646905 -0.041876465 0.07819369 0.18326831 0.18512961
-0.028199036 -0.05202037 0.026656082 0.18910812 0.00071904995 -0.05517128 -0.0858132 -0.031532496
0.034854263 0.19684164 0.06682321 -0.029898582 0.1771747 -0.07832707 0.004166853 0.05714624
0.18209487 -0.16819295 0.076805614 -0.1835102 0.10800976 0.04876864 0.02298297 0.052783296
-0.033726387 -0.18527706 -0.18717374 -0.03027829 0.1790894 -0.0748079 -0.15378496 0.0049458756
-0.05057245 -0.015784552 0.013701296 -0.16400203 0.008536637 -0.123245195 0.18512739 0.12969044
0.0054027587 -0.026392777 -0.07051083 -0.15651375 -0.12092932 -0.11553275 -0.061635334 0.15233095
-0.09842923 -0.03442686 -0.024856284 0.03483504 0.12748629 -0.18834664 -0.06712077 0.068900846
-0.13925613 0.16990645 -0.015694415 -0.13972197 0.04965519 0.1682575 -0.04870145 0.09315556
-0.07682058 0.09997214 -0.10799767 -0.103798606 0.037220165 0.045902554 -0.11202005 0.0033811475
0.19655898 0.19219443 0.19756632 -0.08400627 -0.10539031 0.01817245 0.18087596 0.10258726
-0.16201548 0.21330097 -0.13348776 -0.13577813 0.14202632 -0.11048752 -0.1534855 0.09396524
0.12329988 -0.038596734 0.21918571 0.05622024 0.06995765 -0.052570015 -0.14277443 -0.15011531
0.20167305 0.16508934 0.13390289 -0.039140042 -0.10758355 0.04010908 -0.10001377 0.19997959
-0.03046483 0.1986631 -0.013566861 0.0935918 -0.110110946 -0.06272635 0.11220248 0.17368123
-0.07351821 0.04306246 0.22043401 0.18624067 -0.003550334 0.12505709 -0.073035195 -0.0808815
00000000: cb9e 673d 4532 623d 93e1 48bd d4ca 593c
00000010: 3d12 0dbe 5253 2dba f77e 0a3e af98 63bd
00000020: 9db9 cdbd 1ffd f23d 4e5c 6f3c 7df1 3d3d
00000030: 25cc 023e c4c6 8bbd 4968 f1bd 1baf 083d
00000040: b924 2bbe 59ad 8e3d d896 cd3b 28bc 9abc
00000050: 7f16 353c 35b2 f93d 59c2 7a3d cc04 71bd
00000060: 05fd 6abc 47d6 283d 2513 0d3e aee9 083d
00000070: 230d 9d3c acdf 2a3e f15f df3a 55f1 a9bc
00000080: 55b5 bc3d 2947 1cbe 2240 3bbe fe42 b2bc
00000090: 5119 843d 378b 5c3d e33c ac3d e1ca 063e
000000a0: 6227 09be 0ed1 ba3d 85ff b6bd ae7c 5ebd
000000b0: 58a7 15bc 40ac 2c3e 5bbe 1cbe 8aca fd3d
000000c0: 3ea9 1dbe 40a8 53bd b6ed d2bd 35b7 893d
000000d0: e01b a63d c256 a93d f74a 7b3d 75b0 45bd
000000e0: 0d66 e83d e05b 05be a82e 493d 90c9 973d
000000f0: 6da8 263e c428 c63c a681 f2bd 19ef 2fbe
00000100: 074f 1abe f715 5c3d 2c71 1abc 74ff e2bd
00000110: ee42 b1bd bc2d 86bc 588b b43d 9c48 593d
00000120: da1d 49bc f431 1f3d e2ac 5ebd fbe2 3e3e
00000130: bc7d 3bbd 12ea d93c 5112 863d 40eb 063e
00000140: e799 9ebd fe0c 0a3e f0d0 983d 1c5e cfbc
00000150: c54a 1a3d 8444 233d f314 29bd 84ef d8bc
00000160: d6a0 1dbe 38ae d63d 6ba2 85bd dd76 2abe
00000170: a886 2bbd 0324 a03d b0aa 3b3e 9e92 3d3e
00000180: aa01 e7bc 5013 55bd db5d da3c 8fa5 413e
00000190: a07e 3c3a 48fb 61bd d5be afbd 3828 01bd
000001a0: 58c3 0e3d db90 493e 9bda 883d dfed f4bc
000001b0: 496d 353e f169 a0bd 198a 883b 2d12 6a3d
000001c0: 1477 3a3e c63a 2cbe 434c 9d3d 19ea 3bbe
000001d0: 3934 dd3d a0c1 473d c846 bc3c 4c33 583d
000001e0: ae24 0abd 45b9 3dbe 79aa 3fbe 2d0a f8bc
000001f0: 3663 373e e234 99bd ce79 1dbe 0311 a23b
00000200: 0f25 4fbd 9b4e 81bc 677b 603c 26f0 27be
00000210: 40dd 0b3c fa67 fcbd 0992 3d3e 92cd 043e
00000220: a009 b13b aa35 d8bc fb67 90bd 2445 20be
00000230: cba9 f7bd 6f9c ecbd 5575 7cbd a5fc 1b3e
00000240: 4495 c9bd 2e03 0dbd 689f cbbc 30af 0e3d
00000250: c48b 023e f1dd 40be 9d76 89bd e31b 8d3d
00000260: 2999 0ebe f5fb 2d3e 9391 80bc 4713 0fbe
00000270: 3e63 4b3d b24b 2c3e 2c7b 47bd 58c8 be3d
00000280: 1c54 9dbd 31be cc3d e22d ddbd 5d94 d4bd
00000290: 2c74 183d 5104 3c3d c56a e5bd 3e96 5d3b
000002a0: c246 493e 9ece 443e d34e 4a3e 7b0b acbd
000002b0: e0d6 d7bd 64de 943c 8c37 393e 4519 d23d
000002c0: 63e7 25be 926b 5a3e 04b1 08be 6c09 0bbe
000002d0: 596f 113e 4847 e2bd 4e2b 1dbe d970 c03d
000002e0: a684 fc3d 9c17 1ebd 3872 603e 3247 663d
000002f0: f545 8f3d a853 57bd 7633 12be d4b7 19be
00000300: 6183 4e3e 2e0d 293e d71d 093e 4f51 20bd
00000310: c454 dcbd 6b49 243d 05d4 ccbd 73c7 4c3e
00000320: 6191 f9bc 576e 4b3e 8a47 5ebc 0fad bf3d
00000330: d981 e1bd ac76 80bd 6aca e53d 7ed9 313e
00000340: b790 96bd 4362 303d 74b9 613e e0b5 3e3e
00000350: b8ac 68bb f70e 003e 7a93 95bd 33a5 a5bd

conv3d_11.bias f4 [8]
0.14198697 -0.01968658 -0.11497033 -0.30321914 -0.18770517 -0.0033364587 0.22332941 0.3014164
00000000: 0865 113e c045 a1bc 9075 ebbd 8a3f 9bbe
00000010: c935 40be 7da8 5abb 77b0 643e 4053 9a3e

conv3d_12.weight f4 [8, 8, 3, 3, 3]
0.04506484 -0.06346644 -0.039049413 -0.012975323 0.05921983 0.019970845 -0.061311577 0.060324892
0.017837672 -0.04538576 0.008181171 0.017531117 -0.035985593 -0.0072350833 -0.036932524 0.026912767
0.024234042 0.05903694 -0.05551553 -0.048117924 -0.0653489 0.03276977 0.0642181 0.027100194
-0.048430607 0.024701955 -0.065722376 -0.032879326 0.05825711 0.054965287 0.054323576 -0.04304622
0.0050776284 -0.014950668 -0.020873534 0.042783402 0.033241116 0.013393954 0.0101293465 -0.0017200429
0.022494499 -0.0026495424 -0.058478188 -0.061981365 -0.029336896 0.06431943 0.025327697 -0.057299275
-0.014803946 -0.0102840215 -0.00974264 -0.031122161 -0.06810231 -0.05291856 0.06688454 -0.042613458
-0.06417189 0.038394775 -0.050072245 0.023113703 -0.06746145 0.04215606 -0.06215993 -0.048428837
-0.027214555 0.008624672 -0.03510146 -0.06696631 0.04399564 0.00056071236 -0.034017704 -0.016068859
-0.024436437 -0.041930117 -0.0188297 0.047230482 -0.067204386 -0.008087825 0.023194958 -0.0021626586
0.059798114 0.055893917 -0.0658402 0.04419576 0.007065314 0.05990666 -0.050512545 0.06088482
0.058330107 0.006232825 0.015440053 -0.018564178 0.044051625 -0.016722048 0.062140126 -0.04065988
0.06149245 -0.0066462946 0.004033882 -0.0076253805 -0.021071605 0.029059235 -0.042609192 -0.02283145
-0.04993048 -0.05292904 0.029366175 0.025289604 0.05759901 0.03955569 -0.054242205 -0.05759207
-0.057523426 -0.020222986 -0.02201137 0.05256204 0.0031424202 -0.0021187738 -0.052067388 -0.0030477166
0.026382582 -0.011351334 -0.007152669 0.042718284 -0.057148576 0.041608807 0.067292355 -0.02815099
0.01238082 0.014616048 0.0064531034 0.015194238 0.022044426 -0.044924505 -0.00221181 -0.067644954
0.0087627275 0.020845113 0.01639998 -0.028466567 -0.03302435 -0.06493883 0.027740017 -0.017566873
0.037816085 0.023877002 -0.014078795 0.005877648 -0.034772135 -0.060632143 -0.022095574 -0.060136613
-0.0071941884 -0.037474167 -0.053398028 -0.0016625854 -0.0668398 0.0068952073 0.010848986 0.05152043
0.06145835 -0.025883602 -0.054826047 -0.006576172 0.033796333 0.028339138 -0.016561244 -0.025941186
-0.06039106 0.02612405 -0.06791765 0.046077076 0.03985177 0.0018974423 -0.049079083 0.032316722
-0.0511782 0.0027245847 0.010775074 -0.061009884 0.052636806 0.03855273 -0.04218756 0.029444244
-0.007944654 -0.06590282 0.056152444 0.01746043 -0.027888544 0.015021325 -0.0034049223 -0.013278009
0.054071076 -0.03008952 0.032158513 -0.05581928 -0.050975002 0.046537265 -0.007096066 0.06167796
0.0007776993 -0.023904921 -0.022398189 -0.059159532 -0.028937038 -0.022959339 -0.0319397 0.031063963
0.062200807 -0.030586507 -0.02729016 0.009202846 0.054810267 0.044137694 0.040048648 0.015275866
0.02907616 -0.029174032 -0.041372046 0.034741767 -0.040000755 0.052120835 -0.0033767354 0.0375308
-0.046648707 -0.013499352 0.05424288 0.047765605 -0.03989797 -0.047839914 0.04832826 -0.039848305
0.051693574 -0.063533425 0.048420034 0.008887392 -0.026603695 -0.04036369 0.052540578 -0.016048882
-0.061509494 0.063458115 -0.044847626 -0.03701272 -0.0623928 -0.040634707 -0.026576702 -0.050415963
-0.044480454 -0.003178533 -0.019001368 0.007855234 0.0063814544 -0.045706738 0.028421678 0.057583295
00000000: e995 383d b1fa 81bd 47f2 1fbd 7396 54bc
00000010: 7e90 723d e699 a33c d921 7bbd 3c17 773d
00000020: 4f20 923c 6be6 39bd 510a 063c 6b9d 8f3c
00000030: a165 13bd 4714 edbb 8f46 17bd 2a78 dc3c
00000040: 7886 c63c b8d0 713d 4164 63bd 4d17 45bd
00000050: a5d5 85bd 9839 063d c784 833d 3a01 de3c
00000060: 2c5f 46bd c15b ca3c 7499 86bd 79ac 06bd
00000070: 029f 6e3d 4823 613d 6682 5e3d 3c51 30bd
00000080: 3c62 a63b a6f3 74bc f9fe aabc a63d 2f3d
00000090: d627 083d 5172 5b3c 8ff5 253c 1073 e1ba
000000a0: 6246 b83c f2a3 2dbb d386 6fbd 2ce0 7dbd
000000b0: ee53 f0bc e8b9 833d 087c cf3c a5b2 6abd
000000c0: 408c 72bc 507e 28bc 989f 1fbc e7f3 febc
000000d0: 3979 8bbd 22c1 58bd c3fa 883d 738b 2ebd
000000e0: 8d6c 83bd d743 1d3d 8e18 4dbd f358 bd3c
000000f0: 3b29 8abd d5ab 2c3d 699b 7ebd 515d 46bd
00000100: 0ff1 debc 7f4e 0d3c 8cc6 0fbd a225 89bd
00000110: c634 343d c5fc 123a 2656 0bbd d7a2 83bc
00000120: ec2e c8bc eabe 2bbd be40 9abc c074 413d
00000130: 74a2 89bd cc82 04bc 5a03 be3c 64bb 0dbb
00000140: deee 743d 05f1 643d 3ad7 86bd 9d06 353d
00000150: 2684 e73b b060 753d 3ee6 4ebd 5c62 793d
00000160: 8deb 6e3d ba3c cc3b 47f8 7c3c e713 98bc
00000170: 7a6f 343d adfc 88bc a586 7e3d f98a 26bd
00000180: 82df 7b3d 29c9 d9bb a82e 843b 54de f9bb
00000190: 5c9e acbc a20d ee3c fa86 2ebd 0509 bbbc
000001a0: e783 4cbd 1fcc 58bd 5591 f03c 252c cf3c
000001b0: f1ec 6b3d 2605 223d 132d 5ebd aae5 6bbd
000001c0: af9d 6bbd adaa a5bc 3051 b4bc 4b4b 573d
000001d0: 10f1 4d3b 20db 0abb 9d44 55bd 33bc 47bb
000001e0: 4920 d83c f2fa 39bc f060 eabb 5ef9 2e3d
000001f0: a014 6abd ff6d 2a3d 93d0 893d e89c e6bc
00000200: ecd8 4a3c 2678 6f3c 8e74 d33b 41f1 783c
00000210: 8396 b43c c202 38bd 04f4 10bb 7089 8abd
00000220: 8b91 0f3c 5fc3 aa3c 4059 863c b832 e9bc
00000230: 8a44 07bd a6fe 84bd 083f e33c 67e8 8fbc
00000240: 0ae5 1a3d b499 c33c bfaa 66bc 4999 c03b
00000250: 3a6d 0ebd 6959 78bd c701 b5bc cf51 76bd
00000260: 3abd ebbb 837e 19bd e4b7 5abd 1ceb d9ba
00000270: 4ee3 88bd 31f1 e13b f2bf 313c 1607 533d
00000280: c0bb 7b3d d909 d4bc 4791 60bd ee7c d7bb
00000290: 066e 0a3d 7b27 e83c 72ab 87bc 9c82 d4bc
000002a0: 9e5c 77bd 1b02 d63c 6918 8bbd 51bb 3c3d
000002b0: 9c3b 233d 99b3 f83a 2607 49bd 8a5e 043d
000002c0: 3ba0 51bd f28e 323b f089 303c 80e5 79bd
000002d0: b199 573d 78e9 1d3d ddcc 2cbd 0e35 f13c
000002e0: 4b2a 02bc 0ff8 86bd 1b00 663d 2d09 8f3c
000002f0: 8476 e4bc 011c 763c 1e25 5fbb 028c 59bc
00000300: a279 5d3d 4c7e f6bc a5b8 033d c2a2 64bd
00000310: 2acb 50bd dc9d 3e3d 1e86 e8bb 07a2 7c3d
00000320: 84de 4b3a 41d4 c3bc 687c b7bc 4451 72bd
00000330: 5e0d edbc 3915 bcbc 34d3 02bd da79 fe3c
00000340: 46c6 7e3d 8e90 fabc 9d8f dfbc 89c7 163c
00000350: bb80 603d bac9 343d 0d0a 243d a047 7a3c
00000360: 2131 ee3c 61fe eebc bc75 29bd 624d 0e3d
00000370: d5d7 23bd a87c 553d 384c 5dbb e5b9 193d
00000380: b712 3fbd 632c 5dbc c82d 5e3d dea5 433d
00000390: 0e6c 23bd c9f3 43bd dbf3 453d fa37 23bd
000003a0: a4bc 533d d01d 82bd 1654 463d 6c9c 113c
000003b0: feef d9bc 6654 25bd ca34 573d f278 83bc
000003c0: 61f1 7bbd 54f6 813d 25b2 37bd a69a 17bd
000003d0: 988f 7fbd 9470 26bd 62b7 d9bc f880 4ebd
000003e0: 2331 36bd ef4e 50bb c2a8 9bbc 3db3 003c
000003f0: 851b d13b fd36 3bbd 94d4 e83c 76dc 6b3d

conv3d_12.bias f4 [8]
-0.01454715 -0.065086216 -0.044247355 0.016726373 0.17556508 0.038161628 0.5302712 0.017783958
00000000: 2b57 6ebc ec4b 85bd b73c 35bd bf05 893c
00000010: 55c7 333e 5e4f 1c3d dabf 073f aaaf 913c

conv3d_21.weight f4 [16, 8, 3, 3, 3]
-0.011099713 0.06605509 -0.02807079 -0.031661116 -0.017032217 -0.050948635 0.0671857 -0.02683136
-0.015855098 0.046759095 -0.06042431 -0.009455888 0.067295484 0.034829367 -0.031236706 0.042535435
0.0011674077 0.0017480332 0.015044909 -0.030722357 -0.013490395 0.04664962 0.020622704 0.044095393
-0.0040010614 0.012550737 0.039665513 0.0011329899 -0.06041787 -0.010652055 -0.051333245 -0.0063698213
0.006563851 -0.03085864 -0.002891805 -0.033379484 0.064516835 -0.01651224 0.028368002 -0.06732923
0.030549325 -0.040241428 0.052008465 0.058908306 -0.04747886 0.0040377034 -0.056142982 0.018841447
0.05854946 -0.036707725 0.012705048 -0.0036128806 -0.042840578 -0.03580574 -0.012109661 -0.022729816
0.006185637 0.027719306 0.020438027 0.046384238 0.026878024 -0.050744113 -0.05921199 -0.048434254
0.064376004 0.026166273 -0.063856065 -0.012604954 -0.06488175 -0.059045654 0.0493565 0.03520599
0.038608134 0.037959218 -0.030356824 -0.021936327 -0.032523803 0.014858303 0.04359568 0.019911116
0.033711024 0.0016716965 0.060831223 -0.03255213 -0.0478418 -0.056338236 0.02037786 0.01733862
-0.037617162 0.014177633 -0.045278262 -0.063170955 0.0057311202 -0.06252412 0.04665659 -0.06652012
0.059227403 0.0635695 -0.0015320487 -0.06618696 0.025378725 -0.013849475 -0.043713354 -0.0002816697
-0.007859776 -0.04885957 0.041823965 -0.0495823 0.07799985 0.031876173 0.0888161 0.07423901
-0.013299786 -0.0041668224 -0.01776433 0.06936184 0.06182798 -0.0043034423 0.015579516 0.020539716
0.07401671 0.0109560015 -0.007021726 0.083631754 -0.043172438 0.07377475 0.07540714 0.05712048
0.046162955 -0.029911146 0.03298993 0.054871235 -0.015163728 0.041308384 0.04854027 0.03352415
-0.033798657 0.03592177 -0.050066356 0.0464677 -0.05285523 -0.067114234 -0.020603912 -0.028708223
-0.056575093 -0.027509345 0.009846176 0.008612514 0.006106688 -0.016730035 0.0066418443 0.0496324
0.05723807 -0.046417385 0.038737662 0.0126114255 0.00721414 0.034311093 0.06003966 -0.05238191
0.018996859 -0.014209666 0.038139056 0.08009598 0.07614159 0.09280091 0.10705177 0.075808264
0.08697254 0.09705705 0.073147155 0.034156315 0.12077783 0.09024711 0.09098674 0.0050313836
0.032473724 0.0027075945 0.07840207 0.014525736 0.13718265 0.07440349 0.09600476 0.097285494
0.02823175 0.10940727 0.09944646 0.07594324 0.11554649 -0.06435819 -0.048764586 -0.05478063
0.026821798 0.04428907 -0.047727562 -0.06666948 0.003982521 -0.05729185 -0.05330457 0.047477372
0.05442024 0.055261966 0.024222992 0.021041859 -0.058528934 0.040307943 -0.03386979 0.038425077
0.04375834 -0.023442661 -0.004185091 0.019019084 -0.06766007 -0.044108607 -0.014359636 0.046503507
-0.010735402 -0.024443515 0.02629912 -0.03209982 -0.022883914 -0.046289094 -0.042993285 0.04110391
-0.06160651 -0.056707595 -0.012928469 0.006742563 0.042196084 -0.059625782 -0.00770703 -0.03217493
-0.06481931 -0.05543149 0.008081775 0.009839412 -0.017766478 0.040353335 0.046286464 -0.05805496
-0.02276982 0.06629557 0.009320078 -0.024323098 -0.021820487 0.031519182 0.0034168344 -0.043840714
-0.017470922 0.010549359 0.041027255 0.06384808 -0.029094204 0.000920463 -0.04512881 0.021611966
00000000: 92db 35bc e447 873d b7f4 e5bc 16af 01bd
00000010: 2687 8bbc 84af 50bd a898 893d 71cd dbbc
00000020: 8de2 81bc 7786 3f3d 7b7f 77bd deec 1abc
00000030: 37d2 893d 3da9 0e3d 1fe4 ffbc a339 2e3d
00000040: b403 993a 431e e53a ec7e 763c 74ad fbbc
00000050: d106 5dbc ac13 3f3d f2f0 a83c 5f9d 343d
00000060: 561b 83bb 9ba1 4d3c 4e78 223d d580 943a
00000070: ba78 77bd f585 2ebc cf42 52bd efb9 d0bb
00000080: 9315 d73b 42cb fcbc 7084 3dbb edb8 08bd
00000090: 6721 843d ad44 87bc 0364 e83c e8e3 89bd
000000a0: 9442 fa3c 32d4 24bd d406 553d d649 713d
000000b0: 3179 42bd b64e 843b 2ff6 65bd 6159 9a3c
000000c0: 8fd1 6f3d d75a 16bd d528 503c 14c6 6cbb
000000d0: 9a79 2fbd 0aa9 12bd 9967 46bc e133 babc
000000e0: e2b0 ca3b 9913 e33c a66d a73c 66fd 3d3d
000000f0: 4d2f dc3c 0fd9 4fbd 4688 72bd ff62 46bd
00000100: 91d7 833d a75a d63c f8c6 82bd 0285 4ebc
00000110: b9e0 84bd dbd9 71bd 0b2a 4a3d 2834 103d
00000120: 9023 1e3d 207b 1b3d e0ae f8bc d0b3 b3bc
00000130: ae37 05bd 3d70 733c 6291 323d a31c a33c
00000140: 9214 0a3d d41c db3a 292a 793d 6255 05bd
00000150: c3f5 43bd ecc2 66bd 78ef a63c b909 8e3c
00000160: 7414 1abd 4e49 683c b375 39bd c65f 81bd
00000170: 1fcc bb3b a50c 80bd fb1a 3f3d b33b 88bd
00000180: 6f98 723d ba30 823d 06cf c8ba 078d 87bd
00000190: 0be7 cf3c e9e8 62bc c60c 33bd 11ad 93b9
000001a0: 4ac6 00bc f920 48bd 9b4f 2b3d cf16 4bbd
000001b0: 63be 9f3d 9790 023d 37e5 b53d 9f0a 983d
000001c0: 58e7 59bc d789 88bb 8086 91bc 950d 8e3d
000001d0: 563f 7d3d e403 8dbb 3a41 7f3c e842 a83c
000001e0: 1396 973d cd80 333c 8216 e6bb 2047 ab3d
000001f0: 95d5 30bd 3717 973d 0f6f 9a3d 2af7 693d
00000200: 5e15 3d3d 3808 f5bc 7320 073d a9c0 603d
00000210: 4971 78bc fb32 293d 2ad2 463d 9e50 093d
00000220: 7670 0abd b522 133d 6112 4dbd ea54 3e3d
00000230: ba7e 58bd 3073 89bd 89c9 a8bc 822d ebbc
00000240: 49bb 67bd 475b e1bc db51 213c 801b 0d3c
00000250: 9d1a c83b 6d0d 89bc d4a3 d93b 584b 4b3d
00000260: 7772 6a3d 2820 3ebd 62ab 1e3d 27a0 4e3c
00000270: 9864 ec3b ca89 0c3d 26ec 753d 6a8e 56bd
00000280: 4d9f 9b3c a9cf 68bc b337 1c3d 5c09 a43d
00000290: 1ff0 9b3d 670e be3d f53d db3d 5d41 9b3d
000002a0: a91e b23d d9c5 c63d 2dce 953d 7ee7 0b3d
000002b0: 5e5a f73d 7ad3 b83d 4257 ba3d 4ede a43b
000002c0: 2b03 053d e671 313b 4491 a03d 5afd 6d3c
000002d0: 9c79 0c3e db60 983d 259e c43d 9e3d c73d
000002e0: 4546 e73c eb10 e03d 96aa cb3d 2188 9b3d
000002f0: a3a3 ec3d 3ace 83bd 60bd 47bd a761 60bd
00000300: 63b9 db3c 7568 353d fa7d 43bd 028a 88bd
00000310: cf7f 823b dcaa 6abd e555 5abd a277 423d
00000320: c2e7 5e3d 5f5a 623d 4c6f c63c fa5f ac3c
00000330: 09bc 6fbd f119 253d 0dbb 0abd 9d63 1d3d
00000340: f23b 333d d30a c0bc 1623 89bb e9cd 9b3c
00000350: 5d91 8abd 3aab 34bd ae44 6bbc 767a 3e3d
00000360: 8ae3 2fbc c43d c8bc 4171 d73c 1a7b 03bd
00000370: 0c77 bbbc a299 3dbd ba19 30bd 935c 283d
00000380: 1c57 7cbd 3946 68bd eed1 53bc b8f0 dc3b
00000390: cdd5 2c3d 2a3a 74bd 418b fcbb dcc9 03bd
000003a0: fdbf 84bd 210c 63bd 6c69 043c 7c35 213c
000003b0: 018b 91bc 8a49 253d e096 3d3d 0acb 6dbd
000003c0: c687 babc f9c5 873d 3eb3 183c 3c41 c7bc
000003d0: e1c0 b2bc 421a 013d f8ec 5f3b 5292 33bd
000003e0: 2e1f 8fbc 38d7 2c3c 320c 283d c8c2 823d
000003f0: f856 eebc 3a4b 713a fdd8 38bd 940b b13c

conv3d_21.bias f4 [16]
0.1387675 -0.0060532475 0.008570941 -0.025281632 0.031649902 0.14763829 -0.029880121 0.0028872923
-0.09725086 0.05356401 -0.0047239587 0.04519621 -0.017340995 -0.09208642 0.1035695 0.02163179
00000000: 1119 0e3e 525a c6bb 226d 0c3c 6d1b cfbc
00000010: 54a3 013d 7e2e 173e 28c7 f4bc ba38 3d3b
00000020: 752b c7bd ef65 5b3d 70cb 9abb a91f 393d
00000030: b40e 8ebc ce97 bcbd 3f1c d43d 2735 b13c

conv3d_22.weight f4 [16, 16, 3, 3, 3]
-0.011333614 -0.009887733 0.01354937 -0.029781051 -0.007942633 -0.01426233 0.0028098621 -0.021980908
-0.030260377 -0.028411597 0.03607252 -0.022529522 0.0029257333 -0.0098279 0.03623895 0.03260086
-0.010619521 0.023925103 0.055185497 -0.000926774 0.021040631 0.0242827 0.027170504 0.050495327
-0.026856948 -0.014795937 -0.011239088 -0.0027882117 -0.033980537 0.030080386 0.020903531 0.0036776073
0.0053723156 0.013846048 0.018541966 0.010247528 -0.0067761987 -0.028232025 0.041418992 0.01632015
-0.00987482 0.029274547 0.0021566378 0.021315275 -0.012866924 -0.00877246 0.0217524 0.0052328105
-0.044292808 -0.010846758 -0.037360795 -0.0023459864 -0.021108022 0.0024835996 -0.033880726 -0.022631915
0.035488322 -0.025900535 0.011837548 -0.021814942 0.0034530128 -0.0062524946 0.0404526 0.007837889
0.015173558 0.011548552 -0.04401959 -0.018920466 -0.027244056 0.007153194 -0.016758095 -0.008897879
-0.00364689 0.017013017 -0.040183123 0.029933177 0.0477647 -0.010457083 -0.023059666 0.04475396
-0.013030991 -0.042961203 0.044789836 -0.03464039 0.0006740007 -0.047834206 -0.04161809 0.012471072
0.021699771 -0.039755374 0.034252092 -0.026889494 -0.046567906 -0.022976775 0.023641987 -0.025623683
-0.013064287 -0.034714967 0.04397857 0.019839844 -0.04381572 -0.026808187 -0.03725332 -0.033345453
-0.014595538 -0.039903652 -0.048016544 -0.042650796 -0.017591726 0.009445545 -0.031116078 0.017996186
0.033950333 -0.0035218548 -0.023652539 0.047620986 0.021661606 0.015790759 -0.042094942 0.0017874645
-0.00063719373 -0.012182651 0.04732864 0.021378607 0.03700538 -0.0260301 -0.044783466 -0.0017550234
-0.0011452711 0.012847795 -0.03427442 -0.0021880239 0.0032553591 -0.017337577 0.045224976 0.024482204
0.011621541 0.022117471 0.036818277 -0.031603858 -0.02106672 0.01703198 -0.018600497 0.048626836
-0.028134115 0.018271368 -0.015214125 0.042777188 0.021375608 0.040505026 -0.006458996 -0.031930666
0.049631376 0.010146934 -0.014603059 0.028418377 0.05619601 0.019000383 0.022289535 -0.0062488443
0.054054268 0.008728848 0.044149615 -0.023538519 -0.017912652 -0.040954374 -0.033844974 0.00849286
-0.019243237 0.0277621 -0.028079074 0.016531868 0.04750462 0.03761043 -0.01588871 0.026786922
0.053564895 0.019197917 0.0018966566 0.051191624 -0.011056821 -0.002755074 -0.033081457 -0.0398832
0.029258855 0.030190296 -0.002716149 -0.0048157275 0.03159139 0.017707005 0.00024189796 0.024451682
-0.014304927 -0.033741523 -0.007234137 0.049642358 -0.0282172 -0.012459803 0.005876968 0.055791028
0.028695917 -0.01361422 0.05042765 -0.006415612 0.0077281096 0.014370348 0.016613195 0.047197495
0.029452445 0.003954131 0.03051519 0.015731253 0.020588221 0.012674992 0.0108020855 -0.014465623
-0.03084794 -0.036048215 0.025784668 -0.0023739804 -0.023862287 -0.0016308419 0.043784544 0.030545563
0.012888135 -0.007556961 7.4968906e-05 -0.020633116 -0.033467487 0.04341927 0.03352411 0.014689256
-0.02473137 -0.0058609745 -0.044653594 0.028129013 0.031065878 -0.045436293 -0.0014936946 0.036179226
0.038555264 0.0033966629 -0.03751997 -0.00688479 0.0049434546 0.030627666 0.007417585 0.023587799
0.016009469 -0.03078519 -0.0364107 0.042340636 -0.006351629 -0.022154795 0.020990439 0.0042755785
00000000: 9fb0 39bc 2800 22bc 2dfe 5d3c 64f7 f3bc
00000010: d121 02bc 8cac 69bc aa25 383b 4e11 b4bc
00000020: 9ce4 f7bc 70bf e8bc c7c0 133d d58f b8bc
00000030: a9bd 3f3b 3305 21bc 4b6f 143d 7b88 053d
00000040: 80fd 2dbc 94fe c33c 300a 623d c0f2 72ba
00000050: 675d ac3c 83ec c63c ad94 de3c 30d4 4e3d
00000060: 1a03 dcbc a86a 72bc 2724 38bc 6eba 36bb
00000070: 2d2f 0bbd 246b f63c e23d ab3c 0304 713b
00000080: 400a b03b 89da 623c 52e5 973c 3fe5 273c
00000090: e00a debb d946 e7bc f6a6 293d d6b1 853c
000000a0: ffc9 21bc 2dd1 ef3c 6156 0d3b 5f9d ae3c
000000b0: cacf 52bc 5dba 0fbc 1732 b23c ff77 ab3b
000000c0: 606c 35bd 9ab6 31bc a207 19bd 1fbf 19bb
000000d0: bbea acbc e3c3 223b 84c6 0abd 9166 b9bc
000000e0: 345c 113d 5c2d d4bc 46f2 413c 40b5 b2bc
000000f0: f14b 623b bae1 ccbb a0b1 253d 7d6a 003c
00000100: 849a 783c 2336 3d3c e34d 34bd 18ff 9abc
00000110: ed2e dfbc 5765 ea3b 4648 89bc 69c8 11bc
00000120: a900 6fbb e25e 8b3c 0f97 24bd 6c36 f53c
00000130: eba4 433d 2f54 2bbc a0e7 bcbc ee4f 373d
00000140: f07f 55bc 16f8 2fbd 8c75 373d 15e3 0dbd
00000150: 6caf 303a cded 43bd bb77 2abd 7853 4c3c
00000160: b8c3 b13c 88d6 22bd ec4b 0c3d 5b47 dcbc
00000170: fdbd 3ebd ca39 bcbc d7ac c13c c2e8 d1bc
00000180: 970b 56bc 4831 0ebd df22 343d 2b87 a23c
00000190: 1d78 33bd d89c dbbc f096 18bd 3e95 08bd
000001a0: 2022 6fbc 0372 23bd ffac 44bd 9ab2 2ebd
000001b0: 861c 90bc 7dc1 1a3c 25e7 febc bd6c 933c
000001c0: 810f 0b3d ebce 66bb f8c2 c1bc 390e 433d
000001d0: ae73 b13c 9f5b 813c bf6b 2cbd 5b49 ea3a
000001e0: 5909 27ba be99 47bc addb 413d 3022 af3c
000001f0: f492 173d 143d d5bc de6e 37bd d008 e6ba
00000200: ec1c 96ba 8f7f 523c 5663 0cbd f364 0fbb
00000210: dd57 553b 8907 8ebc d33d 393d e78e c83c
00000220: 4768 3e3c b32f b53c c3ce 163d 0c73 01bd
00000230: 1d94 acbc a786 8b3c 1260 98bc ef2c 473d
00000240: 8479 e6bc d6ad 953c aa44 79bc 2237 2f3d
00000250: e61b af3c 99e8 253d fca5 d3bb bbc9 02bd
00000260: 454a 4b3d 533f 263c ab41 6fbc a8cd e83c
00000270: ca2d 663d b1a6 9b3c 8b98 b63c 1bc3 ccbb
00000280: 0268 5d3d 7103 0f3c 3ad6 343d dad3 c0bc
00000290: 8ebd 92bc c6bf 27bd 07a1 0abd a325 0b3c
000002a0: fea3 9dbc 586d e33c 1606 e6bc d76d 873c
000002b0: 3494 423d 650d 1a3d 0a29 82bc 3f70 db3c
000002c0: dd66 5b3d f344 9d3c 3c99 f83a 4fae 513d
000002d0: ab27 35bc 798e 34bb 6c80 07bd 915c 23bd
000002e0: 44b0 ef3c a451 f73c 6b01 32bb 40cd 9dbb
000002f0: f965 013d 480e 913c fda5 7d39 e54e c83c
00000300: 365f 6abc 8d34 0abd 570c edbb c955 4b3d
00000310: c227 e7bc 3424 4cbc 9593 c03b 2285 643d
00000320: b313 eb3c 2d0e 5fbc 398d 4e3d 0e3a d2bb
00000330: 153c fd3b 9c71 6b3c 6518 883c 2952 413d
00000340: 4146 f13c a891 813b fefa f93c d4de 803c
00000350: a1a8 a83c c5aa 4f3c 3bfb 303c 3801 6dbc
00000360: d2b4 fcbc 4ba7 13bd 5e3a d33c c894 1bbb
00000370: d87a c3bc f9c1 d5ba 6c57 333d b03a fa3c
00000380: c228 533c 62a0 f7bb a038 9d38 c806 a9bc
00000390: 3415 09bd 68d8 313d 9450 093d 35ab 703c
000003a0: 7199 cabc 6b0d c0bb b0e6 36bd d16e e63c
000003b0: de7d fe3c 681b 3abd 13c8 c3ba ab30 143d
000003c0: 20ec 1d3d 8c9a 5e3b 8aae 19bd ce99 e1bb
000003d0: b4fc a13b dfe6 fa3c 360f f33b 333b c13c
000003e0: 4a26 833c 3931 fcbc 6323 15bd 606d 2d3d
000003f0: 5321 d0bb f97d b5bc 24f4 ab3c 271a 8c3b

conv3d_22.bias f4 [16]
0.029114775 0.12795447 -0.024450867 0.10681757 0.25311533 -0.037708566 0.013074563 0.040464137
-0.101976395 0.05602902 -0.0064134947 -0.060105328 0.1450351 0.16794662 -0.030245647 0.11739676
00000000: 1c82 ee3c 7f06 033e 2f4d c8bc 2cc3 da3d
00000010: 5598 813e 4c74 1abd b136 563c b9bd 253d
00000020: 00d9 d0bd b07e 653d 4b28 d2bb 0131 76bd
00000030: 1584 143e 33fa 2b3e b8c5 f7bc b66d f03d

conv3d_31.weight f4 [32, 16, 3, 3, 3]
-0.032785796 0.016105693 0.026487784 -0.032766335 0.02264345 -0.013351011 -0.04582169 0.015869519
-0.007882973 0.010293054 -0.0084103905 0.03841379 -0.047341254 -0.0111580305 0.01620147 -0.020992571
0.030367766 0.025595635 0.034981936 -0.0345023 -0.017628325 -0.044140067 0.044405516 0.011719963
0.03964881 -0.028525773 -0.025187338 -0.03611302 -0.011614834 -0.007350036 0.03151805 -0.009579962
0.023046244 -0.0059686387 -0.033660907 -0.03266303 0.003877179 0.03128824 -0.038651753 -0.044784
0.029314723 -0.031755757 -0.0060460255 0.038757004 -0.009559992 -0.03770764 -0.007458845 0.011140216
0.0009891252 0.004730904 0.026936648 0.027929189 -0.019077752 0.012676034 -0.024899099 -0.009418633
-0.014990047 -0.036825836 -0.011740465 -0.042917922 0.013110194 0.033601273 -0.027454566 0.046302754
0.010439001 0.047563847 0.03761789 -0.03846688 0.014355265 -0.02430494 0.027337398 0.041051645
-0.02533944 0.043508824 0.004402291 -0.009644724 0.047668483 -0.0022025183 -0.0012094304 -0.043039072
0.008774526 0.008364463 0.0081028715 0.018570583 -0.027197422 0.027924832 0.0077158795 0.026794633
-0.036498904 -0.048839748 -0.03331542 -0.017928474 0.016162215 -0.022911252 -0.03282648 -0.0351049
0.033854526 0.020766579 -0.010030789 -0.021647874 0.028757274 0.018225564 0.021340372 0.02965617
-0.038890246 -0.0024773616 0.041369945 -0.039982636 -0.010334986 -0.04690333 0.037117347 -0.00097275426
-0.0049876776 0.01204295 0.0072202194 -0.017170226 0.035974845 0.045491856 0.012612731 -0.025032884
-0.024579382 -0.032539178 0.0087337755 -0.015511832 0.024897309 -0.027969077 0.033890016 0.044768296
0.04204496 -0.039929256 0.023927875 0.013542927 0.023064382 0.015291751 -0.031724688 0.035864096
0.017762618 0.034804344 0.027320577 -0.040721834 -0.02390924 -0.03443261 0.027149126 0.02634517
0.01326307 -0.016592119 0.03745733 0.024351971 0.02020954 -0.009846944 -0.017334105 -0.023982467
-0.0406235 0.014510942 -0.0064371047 0.030231282 -0.029618671 0.0225213 -0.0050767493 0.0047156527
0.041770775 -0.019620232 0.0058913757 0.04718412 0.042228475 -0.012238446 -0.010678528 -0.037025608
0.04275736 -0.027167812 0.033861205 -0.028256191 0.004331291 -0.025041794 -0.040403984 0.03716373
0.040477004 -0.027040768 -0.029814951 0.011407814 0.03403972 -0.004476237 -0.006880682 0.043925565
0.011632349 -0.021602228 0.016688205 0.022686804 0.007080945 -0.040203013 0.017348912 -0.04772803
0.039343726 -0.013805181 0.014089972 0.01555514 -0.040489264 -0.03840644 0.008402906 -0.008654028
0.031239513 0.047252987 -0.03946888 0.026054475 -0.01112226 -0.021840539 -0.04164119 -0.014310684
0.030339476 -0.038722504 -0.023096088 0.03880847 -0.015680294 -0.03590384 0.021345872 0.022188272
0.04479838 -0.0012194123 -0.022441218 0.031324275 -0.029237958 0.026609886 0.031920202 0.0014890624
0.037049934 -0.007720684 0.037387893 0.015773864 -0.028958952 -0.013709398 0.04106767 0.046641324
-0.046199538 -0.029814376 0.03986368 0.019250853 -0.019534282 0.045414537 -0.0039187325 -0.042266548
0.042314027 0.031086802 0.0306424 0.00536416 0.022256872 0.005064751 -0.030923754 -0.013533821
0.037330646 -0.047419213 0.04304715 -0.04579103 -0.013572863 0.020018477 0.01502558 0.010965141
00000000: 664a 06bd 16f0 833c e9fc d83c fe35 06bd
00000010: c27e b93c 33be 5abc 86af 3bbd cb00 823c
00000020: 9627 01bc 33a4 283c bccb 09bc c757 1d3d
00000030: e7e8 41bd 2cd0 36bc f2b8 843c 9df8 abbc
00000040: d2c5 f83c f0ad d13c 3849 0f3d 4952 0dbd
00000050: 4769 90bc 37cc 34bd 8fe2 353d 1605 403c
00000060: ca66 223d e2ae e9bc ad55 cebc 3feb 13bd
00000070: 254c 3ebc 92d8 f0bb 1219 013d 46f5 1cbc
00000080: 7acb bc3c 9294 c3bb 05e0 09bd abc9 05bd
00000090: 4518 7e3b 1928 003d 4d51 1ebd 6d6f 37bd
000000a0: 6e25 f03c 5312 02bd bd1d c6bb aabf 1e3d
000000b0: 83a1 1cbc 5473 1abd 5469 f4bb 7485 363c
000000c0: 89a5 813a b305 9b3b 3faa dc3c c1cb e43c
000000d0: f248 9cbc 24af 4f3c 32f9 cbbc 9c50 1abc
000000e0: d098 75bc b0d6 16bd 145b 40bc b4ca 2fbd
000000f0: 24cc 563c 7da1 093d 66e8 e0bc f5a7 3d3d
00000100: 5808 2b3c 4fd2 423d 3715 1a3d 728f 1dbd
00000110: 5832 6b3c 271b c7bc aef2 df3c c525 283d
00000120: a894 cfbc 4f36 323d 1841 903b e804 1ebc
00000130: 0740 433d 2058 10bb c085 9eba bd49 30bd
00000140: 08c3 0f3c 1a0b 093c e8c1 043c 5621 983c
00000150: 21cd debc 9ec2 e43c 7dd5 fc3b 6b80 db3c
00000160: e07f 15bd 300c 48bd c075 08bd bcde 92bc
00000170: 9f66 843c 61b0 bbbc 0f75 06bd 28ca 0fbd
00000180: 0bab 0a3d ac1e aa3c 2e58 24bc e256 b1bc
00000190: 6094 eb3c c74d 953c 01d2 ae3c 7ff1 f23c
000001a0: 614b 1fbd 3b5b 22bb 8873 293d d5c4 23bd
000001b0: 1354 29bc b51d 40bd 5c08 183d 6f00 7fba
000001c0: ac6f a3bb cb4f 453c 9797 ec3b 93a8 8cbc
000001d0: 5c5a 133d ab55 3a3d a1a5 4e3c c311 cdbc
000001e0: b35a c9bc cd47 05bd 1c18 0f3c 5725 7ebc
000001f0: 71f5 cb3c 681f e5bc 42d0 0a3d f65e 373d
00000200: 5637 2c3d dc8c 23bd 6404 c43c 27e3 5d3c
00000210: 84f1 bc3c 418a 7a3c bff1 01bd 3be6 123d
00000220: e982 913c 008f 0e3d 67cf df3c f0cb 26bd
00000230: 4fdd c3bc 3509 0dbd d867 de3c d3d1 d73c
00000240: 594d 593c 32ec 87bc db6c 193d c97d c73c
00000250: 7a8e a53c 1455 21bc 4100 8ebc e176 c4bc
00000260: d464 26bd 4dbf 6d3c 59ee d2bb 98a7 f73c
00000270: dba2 f2bc 977e b83c dc5a a6bb c385 9a3b
00000280: d517 2b3d 9cba a0bc 710c c13b 2344 413d
00000290: c4f7 2c3d c383 48bc fef4 2ebc 2aa8 17bd
000002a0: 5722 2f3d 088f debc 0cb2 0a3d 8779 e7bc
000002b0: 81ed 8d3b 7324 cdbc a67e 25bd ff38 183d
000002c0: 37cb 253d 9a84 ddbc 7c3e f4bc d7e7 3a3c
000002d0: 3c6d 0b3d 66ad 92bb 5877 e1bb 4beb 333d
000002e0: 9c95 3e3c 28f7 b0bc b4b5 883c add9 b93c
000002f0: 4607 e83b eaab 24bd 4e1f 8e3c 777e 43bd
00000300: e326 213d 202f 62bc a0d9 663c fcda 7e3c
00000310: 12d8 25bd 1250 1dbd 58ac 093c a0c9 0dbc
00000320: 02ea ff3c 598c 413d 1faa 21bd 3270 d53c
00000330: 243a 36bc eeea b2bc f48f 2abd 5c77 6abc
00000340: 7e8a f83c 7d9b 1ebd 0234 bdbc a1f5 1e3d
00000350: f673 80bc e80f 13bd 8add ae3c 2ec4 b53c
00000360: 827e 373d b0d4 9fba a5d6 b7bc e24d 003d
00000370: 7184 efbc fafc d93c c2be 023d a52c c33a
00000380: acc1 173d cbfd fcbb 0c24 193d 3138 813c
00000390: 533b edbc 629d 60bc 9336 283d f90a 3f3d
000003a0: ba3b 3dbd 473d f4bc 1948 233d f7b3 9d3c
000003b0: 5c06 a0bc 9804 3a3d b668 80bb b01f 2dbd
000003c0: 7951 2d3d c0a9 fe3c c505 fb3c d6c5 af3b
000003d0: 0b54 b63c 36f6 a53b d053 fdbc f6bc 5dbc
000003e0: 05e8 183d a63a 42bd 3552 303d 608f 3bbd
000003f0: b760 5ebc cafd a33c da2d 763c 22a7 333c

conv3d_31.bias f4 [32]
-0.036490172 -0.028710565 -0.0050521703 -0.024339732 0.993622 -0.041129235 0.025035158 -0.00014248303
-0.03590655 -0.039713625 -0.024936019 0.041695215 0.031103667 -0.022086972 0.01709204 0.05611264
-0.037497234 -0.006807454 -0.006959047 0.004723677 0.021972017 0.020218393 0.045759447 -0.0019030351
0.018573191 -0.011845917 0.023967506 -0.020853285 0.019785346 0.008608077 -0.017615678 -0.018296752
00000000: b876 15bd 6b32 ebbc ad8c a5bb 1e64 c7bc
00000010: 035e 7e3f 2177 28bd 8816 cd3c 7f67 15b9
00000020: bf12 13bd c1aa 22bd 9f46 ccbc 9ac8 2a3d
00000030: 1ecd fe3c bdef b4bc 9b04 8c3c 5ed6 653d
00000040: b396 19bd 1011 dfbb b808 e4bb 13c9 9a3b
00000050: a9fe b33c 0ba1 a53c 426e 3b3d 436f f9ba
00000060: ce26 983c 6115 42bc 8157 c43c 82d4 aabc
00000070: e114 a23c e408 0d3c c14e 90bc 12e3 95bc

conv3d_32.weight f4 [32, 32, 3, 3, 3]
-0.006655941 0.02503201 -0.0018179081 -0.022677504 -0.015111892 -0.001698263 -0.013434883 0.014240146
-0.02848047 0.012988575 0.026685923 0.0055949166 0.01949877 -0.029915709 0.02265032 0.006827146
-0.004921267 0.029814951 -0.0005071685 0.007037647 -0.018159078 0.020409767 -0.0041112415 0.02552111
-0.014085634 0.019666892 0.022741456 -0.0151718 -0.019549068 0.021969706 -0.018750198 -0.009963045
-0.027892787 -0.025481103 -0.018477604 -0.015404712 -0.023515783 0.019222252 -0.0313134 -0.018570967
-0.013742585 -0.019291557 -0.021559577 0.0054328665 0.009393267 -0.008436002 0.0013317615 -0.032853495
-0.012381986 0.010495957 0.025453132 -0.0028193723 0.030831523 0.016190875 -0.0044170003 0.015394911
-0.0034901258 -0.0054197423 -0.016719716 -0.033219624 0.016206764 0.02608053 0.00868297 0.029651672
-0.0065410025 0.016182885 -0.002506204 0.019588199 -0.02829457 -0.018158583 -0.005825661 -0.021771964
-0.009485293 -0.016370043 0.027452838 0.016046576 0.0006317459 0.0040864386 -0.010783635 0.008372668
0.026252694 0.018398333 0.031787872 0.023671083 0.0219316 0.02247284 -0.0077182557 0.023799386
0.014366262 0.013175633 -0.031557363 -0.02183702 -0.033857945 0.013331372 0.0043038763 0.006259691
-0.0030596983 0.03086695 0.00982805 0.026349023 -0.028665856 -0.0039664805 -0.025853977 0.0065700784
0.029755443 0.017036572 0.017544448 0.014956456 0.031585015 0.003199134 -0.025580911 -0.009708082
-0.025170684 -0.008048778 -0.027771717 -0.018261123 -0.031195842 0.028570645 -0.0055298954 -0.006713737
0.009397738 -0.003672529 -0.033232275 -0.016121058 0.018124517 0.019226838 -0.0052270982 -0.018032344
-0.023421245 0.016185064 0.012173574 0.019259382 -0.01031764 0.019397464 0.0064968504 0.025478132
0.030770436 -0.01271015 -0.0108559355 -0.0035044737 0.0077307187 0.030933067 0.01857308 -0.007867124
0.019313395 -0.010062078 0.008227009 -0.023786912 -0.017822675 0.008059476 0.008888517 0.02156271
-0.024925886 0.01552004 0.006607946 -0.017769992 -0.02884388 -0.024419397 0.031241834 0.024221051
-0.010616396 -0.033079088 0.029827029 0.008684866 -0.030671515 -0.01057397 -0.0046260934 0.017798774
0.010026865 -0.011419766 -0.000876829 0.010904007 -0.009388337 -0.008613534 -0.008518608 0.010252111
0.0016478188 -0.03294034 0.011955336 -0.030873824 0.027487233 -0.004105279 -0.018598381 -0.033169303
-0.012209047 0.01821221 -0.032393463 0.014331449 0.03321729 0.015805826 0.013079267 -0.0146277975
-0.0022207573 -0.009960925 -0.010224765 0.015795615 -0.010431169 0.02067395 0.03393764 0.032080054
-0.015836235 0.00097541884 -0.029413141 -0.0014269464 0.010949228 0.024232965 0.011987034 -0.03202976
0.03305065 0.022465155 0.021664064 -0.026911547 -0.024821483 -0.015875282 0.0052869134 0.024798598
-0.019766001 -0.0073205177 0.01682236 0.024207335 0.0055436715 0.0068268925 -0.0013094507 0.023579963
0.0007181652 -0.022028103 0.016104091 0.010175787 0.023081303 -0.006692903 -0.0074899197 -0.027872838
-0.011772862 -0.019524856 -0.03345562 0.0020819716 -0.017817236 0.00316995 -0.003568191 0.026045397
0.033057705 0.016259488 -0.016998792 -0.0009086579 0.015166059 0.026578236 -0.032390397 -0.01860679
-0.0018061064 6.2119216e-05 -0.033874594 -0.0016768351 -0.0075133927 -0.0014424175 -0.016614944 -0.0007716827
00000000: 141a dabb ee0f cd3c e046 eeba 2cc6 b9bc
00000010: de97 77bc 4098 deba fc1d 5cbc 804f 693c
00000020: e04f e9bc 08ce 543c 709c da3c 9055 b73b
00000030: e2bb 9f3c ca11 f5bc 2a8d b93c 40b6 df3b
00000040: 9442 a1bb 7c3e f43c 80f3 04ba 109c e63b
00000050: 59c2 94bc 6232 a73c 98b7 86bb a611 d13c
00000060: 6ec7 66bc 761c a13c 4a4c ba3c 2493 78bc
00000070: 5e25 a0bc d0f9 b33c 049a 99bc 0a3c 23bc
00000080: 6a7f e4bc bfbd d0bc 585e 97bc 0c64 7cbc
00000090: 2ca4 c0bc fc77 9d3c 7b42 00bd 2422 98bc
000000a0: 9428 61bc 5409 9ebc b69d b0bc 3006 b23b
000000b0: 38e6 193c 2837 0abc 808e ae3a 6391 06bd
000000c0: d0dd 4abc 3cf7 2b3c 1683 d03c 38c5 38bb
000000d0: 6492 fc3c baa2 843c 7cbc 90bb f03a 7c3c
000000e0: 98ba 64bb 1898 b1bb c9f7 88bc 4d11 08bd
000000f0: 0cc4 843c d6a6 d53c 0443 0e3c 10e8 f23c
00000100: e855 d6bb f891 843c 203f 24bb 6e77 a03c
00000110: 04ca e7bc 4fc1 94bc 30e5 bebb 1e5b b2bc
00000120: 3468 1bbc 781a 86bc c6e4 e03c 1c74 833c
00000130: c09b 253a 88e7 853b d8ad 30bc 842d 093c
00000140: e40f d73c 1ab8 963c 0034 023d dce9 c13c
00000150: e6a9 b33c f618 b83c 6ce9 fcbb eef6 c23c
00000160: 7860 6b3c 9cde 573c 4b42 01bd 8de3 b2bc
00000170: a1ae 0abd d46b 5a3c 8807 8d3b 181e cd3b
00000180: 3885 48bb b0dc fc3c d405 213c e8d9 d73c
00000190: a8d4 eabc 40f9 81bb b8cb d3bc d049 d73b
000001a0: b0c1 f33c 4890 8b3c 60b9 8f3c ec0b 753c
000001b0: 4a5f 013d 90a8 513b 0f8f d1bc a60e 1fbc
000001c0: c032 cebc 06df 03bc 8381 e3bc 5a98 95bc
000001d0: 6c8e ffbc fc0c ea3c 2034 b5bb e8fe dbbb
000001e0: f8f8 193c d0ae 70bb 911e 08bd 4f10 84bc
000001f0: de79 943c 9a81 9d3c 1448 abbb 91b8 93bc
00000200: e9dd bfbc 8a96 843c ac73 473c dac5 9d3c
00000210: 520b 29bc 6ee7 9e3c 88e3 d43b 84b7 d03c
00000220: 4812 fc3c 3c3e 50bc 18dd 31bc 50ab 65bb
00000230: f851 fd3b 5867 fd3c 9226 983c 1ce5 00bc
00000240: 2037 9e3c 6adb 24bc 94ca 063c c5dc c2bc
00000250: dc00 92bc e40b 043c 24a1 113c 48a4 b03c
00000260: 5f31 ccbc c447 7e3c 7887 d83b 6092 91bc
00000270: 004a ecbc 300b c8bc e0ee ff3c 3a6b c63c
00000280: 64f0 2dbc f07d 07bd d057 f43c f84a 0e3c
00000290: d442 fbbc 723e 2dbc 7c96 97bb bcce 913c
000002a0: b847 243c f819 3bbc 00db 65ba b8a6 323c
000002b0: 8ad1 19bc c81f 0dbc a291 0bbc 78f8 273c
000002c0: a0fb d73a 73ec 06bd 50e0 433c 1aeb fcbc
000002d0: e82c e13c 9485 86bb a25b 98bc 89dc 07bd
000002e0: 7408 48bc c631 953c 02af 04bd 74ce 6a3c
000002f0: da0e 083d 387b 813c 6c4a 563c 6ea9 6fbc
00000300: 208a 11bb 2633 23bc c685 27bc ce65 813c
00000310: 7ee7 2abc 6a5c a93c 3202 0b3d 6066 033d
00000320: feba 81bc 40b3 7f3a d4f3 f0bc 6008 bbba
00000330: 6464 333c 3684 c63c 4465 443c a331 03bd
00000340: 1e60 073d d808 b83c d678 b13c 9b75 dcbc
00000350: 6c56 cbbc e10c 82bc d83d ad3b 6e26 cb3c
00000360: 4fec a1bc f4e0 efbb 0ccf 893c 764e c63c
00000370: b0a7 b53b 20b4 df3b e0a1 abba c42a c13c
00000380: 4043 3c3a 4874 b4bc baec 833c 58b8 263c
00000390: 0015 bd3c 2450 dbbb 006e f5bb 9455 e4bc
000003a0: f6e2 40bc 97f2 9fbc c308 09bd b071 083b
000003b0: 74f5 91bc f0be 4f3b 50d8 69bb 285d d53c
000003c0: 8467 073d 9e32 853c 0d41 8bbc 0033 6eba
000003d0: 107b 783c 9aba d93c cbab 04bd 446d 98bc
000003e0: e0ba ecba 0046 8238 16c0 0abd 40c9 dbba
000003f0: e832 f6bb 800f bdba 101c 88bc c04a 4aba

conv3d_32.bias f4 [32]
-0.007244244 -0.007534841 0.031507097 0.002412429 -0.017858675 -0.020983037 0.02044933 -0.027236251
0.02455536 -0.01957291 -0.011038319 0.024819328 -0.0118119335 0.022238608 0.027312083 -0.021057747
0.020883363 -0.016014392 0.026218276 0.031057008 -0.0136647355 -0.0077275326 -0.005528738 0.01942187
0.022288375 0.018991692 -0.0013544485 0.017161092 -0.075641885 -0.009446343 0.01394085 -0.02757849
00000000: 2061 edbb d4e6 f6bb 960d 013d d819 1e3b
00000010: 5b4c 92bc 9ee4 abbc 5a85 a73c 8f1e dfbc
00000020: 5328 c93c 5e57 a0bc 11da 34bc e751 cb3c
00000030: d786 41bc be2d b63c 97bd df3c 4c81 acbc
00000040: 9613 ab3c 9d30 83bc b6c7 d63c 446b fe3c
00000050: 0ee2 5fbc 3e37 fdbb 6a2a b5bb 9d1a 9f3c
00000060: 1c96 b63c 7794 9b3c c087 b1ba 6b95 8c3c
00000070: 22ea 9abd d6c4 1abc 2a68 643c 49ec e1bc

up3.up.1.weight f4 [16, 32, 3, 3, 3]
-0.02557377 0.022863552 0.029511824 -0.022970183 0.033531405 0.017325923 0.010237098 0.028451946
-0.010310695 -0.026530772 0.00439582 -0.01686875 -0.0128652975 0.005766645 0.021323271 0.03118898
-0.033757184 -0.0039197896 0.012041941 0.0019037947 0.030673996 -0.022399697 0.030990817 0.0003476143
0.0057444535 -0.023494724 -0.0336059 0.009766441 0.007388601 -0.014058732 -0.017072886 0.018696519
0.001595669 -0.009021712 -0.027221749 -0.0015941081 -0.018558117 -0.02884497 0.012822939 0.004076843
0.012365435 0.011402584 0.028323792 -0.024841962 0.031857 0.027853107 -0.0018198423 0.012291612
0.013589135 -0.02285694 -0.017351653 0.009578411 0.017704561 0.013720378 -0.019260598 0.009551795
0.02299598 -0.023752388 0.020696396 0.021884365 0.016034307 -0.027157646 -0.008403397 -0.004369741
0.011180183 0.013609813 -0.016841607 0.004717853 -0.0005085048 0.025757467 -0.028539384 0.021405432
-0.022155711 -0.02657541 -0.010226616 0.022702716 -0.036794 0.007543683 -0.0131384665 -0.017702788
-0.01901734 0.006289047 0.0017315154 -0.034388326 -0.016506488 -0.028704198 -0.036687985 0.02612176
-0.02573103 -0.017816171 -0.036701027 -0.038047545 0.007770418 -0.035692677 -0.038800877 -0.000870781
0.001139048 -0.038514186 -0.016376887 0.0029979404 -0.0012988807 0.01188782 0.009876769 0.028686788
0.02407781 -0.0049539246 -0.013570575 0.0033278484 0.02751163 0.026863802 0.007397515 0.017191416
0.029877545 -0.012890376 0.01001489 -0.02814614 -0.03190531 0.0265077 -0.017178785 0.0040797647
0.013666626 0.020324439 -0.019374581 0.008455352 0.012611059 -0.01531785 -0.01874113 -0.03618021
0.024780473 0.003634067 0.023121811 -0.033628933 0.019368213 -0.015675534 0.0035809742 -0.009329421
-0.0061031017 0.022506164 0.017978009 0.001947274 0.0094230585 0.012991849 -0.0061119706 -0.0054200473
0.025996765 -0.027044294 0.0071949055 0.01524511 -0.017551605 -0.023391256 -0.016922839 0.011545543
-0.021642797 0.017310195 0.029646855 0.004271467 0.027045934 -0.029506598 -0.00398991 0.035171688
-0.019258384 0.02906587 0.022643417 -0.027135387 -0.01327426 0.0084048575 0.01192911 0.02949454
-0.0066528404 0.029855276 -0.021521987 -0.0039789337 -0.030579302 0.00795291 -0.014640518 -0.028232949
8.0825754e-05 0.0029072545 -0.02832515 0.010228881 1.3564683e-05 0.02026347 0.0061672684 0.009312215
0.029452244 0.009506085 -0.018455999 -0.011003565 0.03177786 -0.006154692 -0.01061799 0.022409417
0.008220961 -0.024723569 0.028427849 0.01522884 0.011223515 0.007608849 0.01501116 0.015384135
0.01594768 0.03363997 -0.022155281 0.03585633 -0.019984487 0.009625619 -0.0049875397 0.010054583
0.013201727 0.0022694736 0.04124237 0.011615492 0.011350245 0.034329157 -0.010508742 -0.031748224
-0.03203701 0.022830429 -0.02244247 -0.0034050136 0.022068514 0.026462499 -0.00918212 -0.032412246
-0.008104189 -0.013142053 -0.02691706 0.014625308 -0.020097498 -0.0178421 -0.006676024 -0.0013553055
-0.018404366 -0.015931806 -0.01419487 -0.0157154 -0.034820076 -0.01253312 0.03151556 -0.024297286
0.014825876 -0.033496 0.008780441 0.011113804 -0.0021428652 -0.02596873 -0.03061747 0.004529275
-0.0067720767 -0.018013364 0.024274886 0.0066614784 0.004098855 -0.023022946 -0.026111621 -0.03005613
00000000: 1580 d1bc 584c bb3c c8c2 f13c f72b bcbc
00000010: 3a58 093d 18ef 8d3c 80b9 273c 0e14 e93c
00000020: 30ee 28bc 1057 d9bc d00a 903b 5530 8abc
00000030: f8c8 52bc 20f6 bc3b 24ae ae3c 0880 ff3c
00000040: f944 0abd 9471 80bb 904b 453c c088 f93a
00000050: 0848 fb3c 927f b7bc 74e0 fd3c 0040 b639
00000060: f83b bc3b 0278 c0bc 57a6 09bd 6c03 203c
00000070: 141c f23b 9956 66bc 70dc 8bbc 7129 993c
00000080: c425 d13a cdcf 13bc 2500 dfbc 64f1 d0ba
00000090: 3107 98bc 494c ecbc 4e17 523c 0a97 853b
000000a0: 6598 4a3c e7d1 3a3c 4c07 e83c 5f81 cbbc
000000b0: 7c7c 023d 332c e43c c687 eeba c262 493c
000000c0: f7a4 5e3c 7a3e bbbc 0e25 8ebc c4ee 1c3c
000000d0: 2809 913c 70cb 603c 67c8 9dbc 227f 1c3c
000000e0: 1162 bc3c 5e94 c2bc 7d8b a93c d746 b33c
000000f0: 615a 833c b679 debc 67ae 09bc 0b30 8fbb
00000100: 162d 373c b1fb 5e3c 69f7 89bc 3898 9a3b
00000110: 2e4d 05ba 5301 d33c 6dcb e9bc 725a af3c
00000120: e57f b5bc adb4 d9bc 898d 27bc 0cfb b93c
00000130: 4eb5 16bd 0031 f73b b942 57bc 7005 91bc
00000140: 41ca 9bbc 5a14 ce3b 04f4 e23a c6da 0cbd
00000150: 9d38 87bc 1125 ebbc 2446 16bd 4dfd d53c
00000160: e2c9 d2bc 38f3 91bc d153 16bd bed7 1bbd
00000170: fe9e fe3b 7c32 12bd abed 1ebd 2045 64ba
00000180: 1c4c 953a 0dc1 1dbd d228 86bc 1879 443b
00000190: 343f aaba 22c5 423c 2cd2 213c 8e00 eb3c
000001a0: d43e c53c 8854 a2bb 1e57 5ebc 0818 5a3b
000001b0: 1260 e13c 7a11 dc3c da66 f23b 03d5 8c3c
000001c0: c1c1 f43c 2832 53bc 7e15 243c bc92 e6bc
000001d0: 24af 02bd ad26 d93c 86ba 8cbc 8caf 853b
000001e0: fce9 5f3c 707f a63c 71b7 9ebc 5188 0a3c
000001f0: 9d9e 4e3c b8f7 7abc 0087 99bc b331 14bd
00000200: 6b00 cb3c 8729 6e3b f469 bd3c 7ebe 09bd
00000210: 16aa 9e3c fa69 80bc c7ae 6a3b 6eda 18bc
00000220: 87fc c7bb d95e b83c 9e46 933c ac3b ff3a
00000230: 2c63 1a3c c4db 543c ed46 c8bb a79a b1bb
00000240: 2bf7 d43c ff8b ddbc 3ec3 eb3b a0c6 793c
00000250: 62c8 8fbc 059f bfbc c4a1 8abc 8429 3d3c
00000260: 3c4c b1bc 1cce 8d3c f6dd f23c aaf7 8b3b
00000270: 6f8f dd3c d2b7 f1bc cabd 82bb 3010 103d
00000280: c2c3 9dbc 8c1b ee3c b07e b93c 084b debc
00000290: 487c 59bc 87b4 093c 5072 433c 899e f13c
000002a0: 1200 dabb 0d93 f43c e14e b0bc b761 82bb
000002b0: 7281 fabc ec4c 023c c9de 6fbc c948 e7bc
000002c0: ff80 a938 a387 3e3b 250a e8bc 0997 273c
000002d0: df93 6337 94ff a53c cc16 ca3b 4392 183c
000002e0: d545 f13c 69bf 1b3c 0931 97bc 4c48 34bc
000002f0: 8029 023d 4cad c9bb 14f7 2dbc f493 b73c
00000300: 36b1 063c 1589 cabc 85e1 e83c 6282 793c
00000310: d5e2 373c a753 f93b 5ef1 753c bd0d 7c3c
00000320: b6a4 823c 11ca 093d fe7e b5bc 16de 123d
00000330: 82b6 a3bc c6b4 1d3c 846e a3bb fabb 243c
00000340: 0e4c 583c 73bb 143b c2ed 283d e84e 3e3c
00000350: 61f6 393c bb9c 0c3d dc2c 2cbc 6d0a 02bd
00000360: 3d39 03bd e106 bb3c 45d9 b7bc a626 5fbb
00000370: 07c9 b43c e2c7 d83c 9a70 16bc b4c2 04bd
00000380: 6fc7 04bc c451 57bc 2b81 dcbc fd9e 6f3c
00000390: 82a3 a4bc 9829 92bc 8cc2 dabb 82a4 b1ba
000003a0: c1c4 96bc 6b83 82bc 9a91 68bc 95bd 80bc
000003b0: 7f9f 0ebd b757 4dbc 7616 013d 1a0b c7bc
000003c0: 3be8 723c 1a33 09bd d7db 0f3c ac16 363c
000003d0: 506f 0cbb 60bc d4bc 7dd1 fabc 506a 943b
000003e0: 4ce8 ddbb c390 93bc 20dc c63c 8848 da3b
000003f0: b04f 863b 9e9a bcbc 0ae8 d5bc 4638 f6bc

up3.up.1.bias f4 [16]
-0.02436692 0.018700281 0.0036404224 9.129234e-05 0.020115536 -0.011494696 0.032809008 0.013894
-0.017852368 0.011716762 0.023835344 0.01513079 -0.022694547 0.013848534 -0.015000661 -0.012434708
00000000: 239d c7bc 5531 993c 2794 6e3b 3474 bf38
00000010: 56c9 a43c 4054 3cbc bd62 063d a9a3 633c
00000020: 213f 92bc a9f7 3f3c 5742 c33c 22e7 773c
00000030: eae9 b9bc f6e4 623c 55c5 75bc f2ba 4bbc

up3.up.2.weight f4 [16]
1.0144974 1.0124826 0.98880285 0.98980635 0.9994622 1.0259588 0.99819183 0.8239364
0.9163286 1.0822684 1.0020401 1.0052887 0.9842455 1.00787 1.0312842 1.004257
00000000: 0ddb 813f 0899 813f 2f22 7d3f f363 7d3f
00000010: c1dc 7f3f 9e52 833f 8089 7f3f 7fed 523f
00000020: 8394 6a3f c587 8a3f da42 803f 4dad 803f
00000030: 83f7 7b3f e201 813f 1f01 843f 7e8b 803f

up3.up.2.bias f4 [16]
0.02638791 -0.036110345 0.0034995424 -0.05215252 0.008466436 0.033203363 0.0458478 -0.027455505
0.09208566 0.10796748 0.06721078 0.0010382737 -0.069932334 0.0041816807 0.02752701 -0.021993516
00000000: 752b d83c 71e8 13bd 9458 653b e19d 55bd
00000010: ceb6 0a3c 4000 083d e7ca 3b3d 5eea e0bc
00000020: 6897 bc3d 0e1e dd3d cea5 893d af16 883a
00000030: af38 8fbd 7b06 893b 5380 e13c bf2b b4bc

up3.up.2.running_mean f4 [16]
169.30815 15190.175 -4810.953 -3.5733776 -24.868944 614.00836 -156.74727 614.57074
177.96063 24.455452 -469.3103 -165.9454 -388.7785 -165.15776 34.391872 436.13052
00000000: e34e 2943 b358 6d46 a057 96c5 38b2 64c0
00000010: 99f3 c6c1 8980 1944 4dbf 1cc3 87a4 1944
00000020: ecf5 3143 c4a4 c341 b8a7 eac3 06f2 25c3
00000030: a663 c2c3 6328 25c3 4791 0942 b510 da43

up3.up.2.running_var f4 [16]
82.468636 634646.2 63672.21 1.5552927 12.930479 1037.4265 67.90193 1046.4889
89.22485 12.595642 607.05884 78.02629 416.40118 75.51851 12.021096 526.7101
00000000: f1ef a442 63f1 1a49 36b8 7847 d513 c73f
00000010: 3ee3 4e41 a6ad 8144 cacd 8742 a5cf 8244
00000020: 2073 b242 c087 4941 c4c3 1744 760d 9c42
00000030: 5a33 d043 7a09 9742 6956 4041 72ad 0344
